training for user ./users_koln/cfa739aab98055600f02875f6c84426f.txt
Model: "sequential"
_________________________________________________________________
Layer (type)                 Output Shape              Param #   
=================================================================
lstm (LSTM)                  (None, 4)                 112       
_________________________________________________________________
dense (Dense)                (None, 50)                250       
_________________________________________________________________
leaky_re_lu (LeakyReLU)      (None, 50)                0         
_________________________________________________________________
dropout (Dropout)            (None, 50)                0         
_________________________________________________________________
dense_1 (Dense)              (None, 50)                2550      
_________________________________________________________________
leaky_re_lu_1 (LeakyReLU)    (None, 50)                0         
_________________________________________________________________
dropout_1 (Dropout)          (None, 50)                0         
_________________________________________________________________
dense_2 (Dense)              (None, 2)                 102       
_________________________________________________________________
leaky_re_lu_2 (LeakyReLU)    (None, 2)                 0         
=================================================================
Total params: 3,014
Trainable params: 3,014
Non-trainable params: 0
_________________________________________________________________
None
training for user ./users_koln/cbac053b0bc61b43c03a7d8f0faf5a5b.txt
Model: "sequential_1"
_________________________________________________________________
Layer (type)                 Output Shape              Param #   
=================================================================
lstm_1 (LSTM)                (None, 4)                 112       
_________________________________________________________________
dense_3 (Dense)              (None, 50)                250       
_________________________________________________________________
leaky_re_lu_3 (LeakyReLU)    (None, 50)                0         
_________________________________________________________________
dropout_2 (Dropout)          (None, 50)                0         
_________________________________________________________________
dense_4 (Dense)              (None, 50)                2550      
_________________________________________________________________
leaky_re_lu_4 (LeakyReLU)    (None, 50)                0         
_________________________________________________________________
dropout_3 (Dropout)          (None, 50)                0         
_________________________________________________________________
dense_5 (Dense)              (None, 2)                 102       
_________________________________________________________________
leaky_re_lu_5 (LeakyReLU)    (None, 2)                 0         
=================================================================
Total params: 3,014
Trainable params: 3,014
Non-trainable params: 0
_________________________________________________________________
None
training for user ./users_koln/b45414fa5e52df9bd8df750a54dcc9da.txt
Model: "sequential_2"
_________________________________________________________________
Layer (type)                 Output Shape              Param #   
=================================================================
lstm_2 (LSTM)                (None, 4)                 112       
_________________________________________________________________
dense_6 (Dense)              (None, 50)                250       
_________________________________________________________________
leaky_re_lu_6 (LeakyReLU)    (None, 50)                0         
_________________________________________________________________
dropout_4 (Dropout)          (None, 50)                0         
_________________________________________________________________
dense_7 (Dense)              (None, 50)                2550      
_________________________________________________________________
leaky_re_lu_7 (LeakyReLU)    (None, 50)                0         
_________________________________________________________________
dropout_5 (Dropout)          (None, 50)                0         
_________________________________________________________________
dense_8 (Dense)              (None, 2)                 102       
_________________________________________________________________
leaky_re_lu_8 (LeakyReLU)    (None, 2)                 0         
=================================================================
Total params: 3,014
Trainable params: 3,014
Non-trainable params: 0
_________________________________________________________________
None
training for user ./users_koln/1052ac9bd469b8035224f8e25537d3c5.txt
Model: "sequential_3"
_________________________________________________________________
Layer (type)                 Output Shape              Param #   
=================================================================
lstm_3 (LSTM)                (None, 4)                 112       
_________________________________________________________________
dense_9 (Dense)              (None, 50)                250       
_________________________________________________________________
leaky_re_lu_9 (LeakyReLU)    (None, 50)                0         
_________________________________________________________________
dropout_6 (Dropout)          (None, 50)                0         
_________________________________________________________________
dense_10 (Dense)             (None, 50)                2550      
_________________________________________________________________
leaky_re_lu_10 (LeakyReLU)   (None, 50)                0         
_________________________________________________________________
dropout_7 (Dropout)          (None, 50)                0         
_________________________________________________________________
dense_11 (Dense)             (None, 2)                 102       
_________________________________________________________________
leaky_re_lu_11 (LeakyReLU)   (None, 2)                 0         
=================================================================
Total params: 3,014
Trainable params: 3,014
Non-trainable params: 0
_________________________________________________________________
None
training for user ./users_koln/0ca30efb5d4e156c5990701b4e0a4601.txt
Model: "sequential_4"
_________________________________________________________________
Layer (type)                 Output Shape              Param #   
=================================================================
lstm_4 (LSTM)                (None, 4)                 112       
_________________________________________________________________
dense_12 (Dense)             (None, 50)                250       
_________________________________________________________________
leaky_re_lu_12 (LeakyReLU)   (None, 50)                0         
_________________________________________________________________
dropout_8 (Dropout)          (None, 50)                0         
_________________________________________________________________
dense_13 (Dense)             (None, 50)                2550      
_________________________________________________________________
leaky_re_lu_13 (LeakyReLU)   (None, 50)                0         
_________________________________________________________________
dropout_9 (Dropout)          (None, 50)                0         
_________________________________________________________________
dense_14 (Dense)             (None, 2)                 102       
_________________________________________________________________
leaky_re_lu_14 (LeakyReLU)   (None, 2)                 0         
=================================================================
Total params: 3,014
Trainable params: 3,014
Non-trainable params: 0
_________________________________________________________________
None
training for user ./users_koln/a374ce3e1da26aa6be2cf9342e8d48c2.txt
Model: "sequential_5"
_________________________________________________________________
Layer (type)                 Output Shape              Param #   
=================================================================
lstm_5 (LSTM)                (None, 4)                 112       
_________________________________________________________________
dense_15 (Dense)             (None, 50)                250       
_________________________________________________________________
leaky_re_lu_15 (LeakyReLU)   (None, 50)                0         
_________________________________________________________________
dropout_10 (Dropout)         (None, 50)                0         
_________________________________________________________________
dense_16 (Dense)             (None, 50)                2550      
_________________________________________________________________
leaky_re_lu_16 (LeakyReLU)   (None, 50)                0         
_________________________________________________________________
dropout_11 (Dropout)         (None, 50)                0         
_________________________________________________________________
dense_17 (Dense)             (None, 2)                 102       
_________________________________________________________________
leaky_re_lu_17 (LeakyReLU)   (None, 2)                 0         
=================================================================
Total params: 3,014
Trainable params: 3,014
Non-trainable params: 0
_________________________________________________________________
None
training for user ./users_koln/b8f6a9c6bd19b6ef9c4776dd35914bb0.txt
Model: "sequential_6"
_________________________________________________________________
Layer (type)                 Output Shape              Param #   
=================================================================
lstm_6 (LSTM)                (None, 4)                 112       
_________________________________________________________________
dense_18 (Dense)             (None, 50)                250       
_________________________________________________________________
leaky_re_lu_18 (LeakyReLU)   (None, 50)                0         
_________________________________________________________________
dropout_12 (Dropout)         (None, 50)                0         
_________________________________________________________________
dense_19 (Dense)             (None, 50)                2550      
_________________________________________________________________
leaky_re_lu_19 (LeakyReLU)   (None, 50)                0         
_________________________________________________________________
dropout_13 (Dropout)         (None, 50)                0         
_________________________________________________________________
dense_20 (Dense)             (None, 2)                 102       
_________________________________________________________________
leaky_re_lu_20 (LeakyReLU)   (None, 2)                 0         
=================================================================
Total params: 3,014
Trainable params: 3,014
Non-trainable params: 0
_________________________________________________________________
None
training for user ./users_koln/{user}.h5
