training for user cfa739aab98055600f02875f6c84426f.txt
Model: "sequential"
_________________________________________________________________
Layer (type)                 Output Shape              Param #   
=================================================================
lstm (LSTM)                  (None, 1)                 16        
_________________________________________________________________
dense (Dense)                (None, 10)                20        
_________________________________________________________________
leaky_re_lu (LeakyReLU)      (None, 10)                0         
_________________________________________________________________
dropout (Dropout)            (None, 10)                0         
_________________________________________________________________
dense_1 (Dense)              (None, 2)                 22        
_________________________________________________________________
leaky_re_lu_1 (LeakyReLU)    (None, 2)                 0         
=================================================================
Total params: 58
Trainable params: 58
Non-trainable params: 0
_________________________________________________________________
None
Model: "sequential_1"
_________________________________________________________________
Layer (type)                 Output Shape              Param #   
=================================================================
lstm_1 (LSTM)                (None, 1)                 16        
_________________________________________________________________
dense_2 (Dense)              (None, 10)                20        
_________________________________________________________________
leaky_re_lu_2 (LeakyReLU)    (None, 10)                0         
_________________________________________________________________
dropout_1 (Dropout)          (None, 10)                0         
_________________________________________________________________
dense_3 (Dense)              (None, 10)                110       
_________________________________________________________________
leaky_re_lu_3 (LeakyReLU)    (None, 10)                0         
_________________________________________________________________
dropout_2 (Dropout)          (None, 10)                0         
_________________________________________________________________
dense_4 (Dense)              (None, 10)                110       
_________________________________________________________________
leaky_re_lu_4 (LeakyReLU)    (None, 10)                0         
_________________________________________________________________
dropout_3 (Dropout)          (None, 10)                0         
_________________________________________________________________
dense_5 (Dense)              (None, 10)                110       
_________________________________________________________________
leaky_re_lu_5 (LeakyReLU)    (None, 10)                0         
_________________________________________________________________
dropout_4 (Dropout)          (None, 10)                0         
_________________________________________________________________
dense_6 (Dense)              (None, 10)                110       
_________________________________________________________________
leaky_re_lu_6 (LeakyReLU)    (None, 10)                0         
_________________________________________________________________
dropout_5 (Dropout)          (None, 10)                0         
_________________________________________________________________
dense_7 (Dense)              (None, 2)                 22        
_________________________________________________________________
leaky_re_lu_7 (LeakyReLU)    (None, 2)                 0         
=================================================================
Total params: 498
Trainable params: 498
Non-trainable params: 0
_________________________________________________________________
None
Model: "sequential_2"
_________________________________________________________________
Layer (type)                 Output Shape              Param #   
=================================================================
lstm_2 (LSTM)                (None, 1)                 16        
_________________________________________________________________
dense_8 (Dense)              (None, 10)                20        
_________________________________________________________________
leaky_re_lu_8 (LeakyReLU)    (None, 10)                0         
_________________________________________________________________
dropout_6 (Dropout)          (None, 10)                0         
_________________________________________________________________
dense_9 (Dense)              (None, 10)                110       
_________________________________________________________________
leaky_re_lu_9 (LeakyReLU)    (None, 10)                0         
_________________________________________________________________
dropout_7 (Dropout)          (None, 10)                0         
_________________________________________________________________
dense_10 (Dense)             (None, 10)                110       
_________________________________________________________________
leaky_re_lu_10 (LeakyReLU)   (None, 10)                0         
_________________________________________________________________
dropout_8 (Dropout)          (None, 10)                0         
_________________________________________________________________
dense_11 (Dense)             (None, 10)                110       
_________________________________________________________________
leaky_re_lu_11 (LeakyReLU)   (None, 10)                0         
_________________________________________________________________
dropout_9 (Dropout)          (None, 10)                0         
_________________________________________________________________
dense_12 (Dense)             (None, 10)                110       
_________________________________________________________________
leaky_re_lu_12 (LeakyReLU)   (None, 10)                0         
_________________________________________________________________
dropout_10 (Dropout)         (None, 10)                0         
_________________________________________________________________
dense_13 (Dense)             (None, 10)                110       
_________________________________________________________________
leaky_re_lu_13 (LeakyReLU)   (None, 10)                0         
_________________________________________________________________
dropout_11 (Dropout)         (None, 10)                0         
_________________________________________________________________
dense_14 (Dense)             (None, 10)                110       
_________________________________________________________________
leaky_re_lu_14 (LeakyReLU)   (None, 10)                0         
_________________________________________________________________
dropout_12 (Dropout)         (None, 10)                0         
_________________________________________________________________
dense_15 (Dense)             (None, 10)                110       
_________________________________________________________________
leaky_re_lu_15 (LeakyReLU)   (None, 10)                0         
_________________________________________________________________
dropout_13 (Dropout)         (None, 10)                0         
_________________________________________________________________
dense_16 (Dense)             (None, 10)                110       
_________________________________________________________________
leaky_re_lu_16 (LeakyReLU)   (None, 10)                0         
_________________________________________________________________
dropout_14 (Dropout)         (None, 10)                0         
_________________________________________________________________
dense_17 (Dense)             (None, 10)                110       
_________________________________________________________________
leaky_re_lu_17 (LeakyReLU)   (None, 10)                0         
_________________________________________________________________
dropout_15 (Dropout)         (None, 10)                0         
_________________________________________________________________
dense_18 (Dense)             (None, 2)                 22        Model: "sequential"
_________________________________________________________________
Layer (type)                 Output Shape              Param #   
=================================================================
lstm (LSTM)                  (None, 10)                520       
_________________________________________________________________
dense (Dense)                (None, 10)                110       
_________________________________________________________________
leaky_re_lu (LeakyReLU)      (None, 10)                0         
_________________________________________________________________
dropout (Dropout)            (None, 10)                0         
_________________________________________________________________
dense_1 (Dense)              (None, 2)                 22        
_________________________________________________________________
leaky_re_lu_1 (LeakyReLU)    (None, 2)                 0         
=================================================================
Total params: 652
Trainable params: 652
Non-trainable params: 0
_________________________________________________________________
None
Model: "sequential_1"
_________________________________________________________________
Layer (type)                 Output Shape              Param #   
=================================================================
lstm_1 (LSTM)                (None, 4)                 112       
_________________________________________________________________
dense_2 (Dense)              (None, 10)                50        
_________________________________________________________________
leaky_re_lu_2 (LeakyReLU)    (None, 10)                0         
_________________________________________________________________
dropout_1 (Dropout)          (None, 10)                0         
_________________________________________________________________
dense_3 (Dense)              (None, 10)                110       
_________________________________________________________________
leaky_re_lu_3 (LeakyReLU)    (None, 10)                0         
_________________________________________________________________
dropout_2 (Dropout)          (None, 10)                0         
_________________________________________________________________
dense_4 (Dense)              (None, 10)                110       
_________________________________________________________________
leaky_re_lu_4 (LeakyReLU)    (None, 10)                0         
_________________________________________________________________
dropout_3 (Dropout)          (None, 10)                0         
_________________________________________________________________
dense_5 (Dense)              (None, 10)                110       
_________________________________________________________________
leaky_re_lu_5 (LeakyReLU)    (None, 10)                0         
_________________________________________________________________
dropout_4 (Dropout)          (None, 10)                0         
_________________________________________________________________
dense_6 (Dense)              (None, 10)                110       
_________________________________________________________________
leaky_re_lu_6 (LeakyReLU)    (None, 10)                0         
_________________________________________________________________
dropout_5 (Dropout)          (None, 10)                0         
_________________________________________________________________
dense_7 (Dense)              (None, 2)                 22        
_________________________________________________________________
leaky_re_lu_7 (LeakyReLU)    (None, 2)                 0         
=================================================================
Total params: 624
Trainable params: 624
Non-trainable params: 0
_________________________________________________________________
None
Model: "sequential_2"
_________________________________________________________________
Layer (type)                 Output Shape              Param #   
=================================================================
lstm_2 (LSTM)                (None, 1)                 16        
_________________________________________________________________
dense_8 (Dense)              (None, 10)                20        
_________________________________________________________________
leaky_re_lu_8 (LeakyReLU)    (None, 10)                0         
_________________________________________________________________
dropout_6 (Dropout)          (None, 10)                0         
_________________________________________________________________
dense_9 (Dense)              (None, 10)                110       
_________________________________________________________________
leaky_re_lu_9 (LeakyReLU)    (None, 10)                0         
_________________________________________________________________
dropout_7 (Dropout)          (None, 10)                0         
_________________________________________________________________
dense_10 (Dense)             (None, 10)                110       
_________________________________________________________________
leaky_re_lu_10 (LeakyReLU)   (None, 10)                0         
_________________________________________________________________
dropout_8 (Dropout)          (None, 10)                0         
_________________________________________________________________
dense_11 (Dense)             (None, 10)                110       
_________________________________________________________________
leaky_re_lu_11 (LeakyReLU)   (None, 10)                0         
_________________________________________________________________
dropout_9 (Dropout)          (None, 10)                0         
_________________________________________________________________
dense_12 (Dense)             (None, 10)                110       
_________________________________________________________________
leaky_re_lu_12 (LeakyReLU)   (None, 10)                0         
_________________________________________________________________
dropout_10 (Dropout)         (None, 10)                0         
_________________________________________________________________
dense_13 (Dense)             (None, 10)                110       
_________________________________________________________________
leaky_re_lu_13 (LeakyReLU)   (None, 10)                0         
_________________________________________________________________
dropout_11 (Dropout)         (None, 10)                0         
_________________________________________________________________
dense_14 (Dense)             (None, 10)                110       
_________________________________________________________________
leaky_re_lu_14 (LeakyReLU)   (None, 10)                0         
_________________________________________________________________
dropout_12 (Dropout)         (None, 10)                0         
_________________________________________________________________
dense_15 (Dense)             (None, 10)                110       
_________________________________________________________________
leaky_re_lu_15 (LeakyReLU)   (None, 10)                0         
_________________________________________________________________
dropout_13 (Dropout)         (None, 10)                0         
_________________________________________________________________
dense_16 (Dense)             (None, 10)                110       
_________________________________________________________________
leaky_re_lu_16 (LeakyReLU)   (None, 10)                0         
_________________________________________________________________
dropout_14 (Dropout)         (None, 10)                0         
_________________________________________________________________
dense_17 (Dense)             (None, 10)                110       
_________________________________________________________________
leaky_re_lu_17 (LeakyReLU)   (None, 10)                0         
_________________________________________________________________
dropout_15 (Dropout)         (None, 10)                0         
_________________________________________________________________
dense_18 (Dense)             (None, 2)                 22        Model: "sequential"
_________________________________________________________________
Layer (type)                 Output Shape              Param #   
=================================================================
lstm (LSTM)                  (None, 4)                 112       
_________________________________________________________________
dense (Dense)                (None, 10)                50        
_________________________________________________________________
leaky_re_lu (LeakyReLU)      (None, 10)                0         
_________________________________________________________________
dropout (Dropout)            (None, 10)                0         
_________________________________________________________________
dense_1 (Dense)              (None, 2)                 22        
_________________________________________________________________
leaky_re_lu_1 (LeakyReLU)    (None, 2)                 0         
=================================================================
Total params: 184
Trainable params: 184
Non-trainable params: 0
_________________________________________________________________
None
Model: "sequential_1"
_________________________________________________________________
Layer (type)                 Output Shape              Param #   
=================================================================
lstm_1 (LSTM)                (None, 4)                 112       
_________________________________________________________________
dense_2 (Dense)              (None, 10)                50        
_________________________________________________________________
leaky_re_lu_2 (LeakyReLU)    (None, 10)                0         
_________________________________________________________________
dropout_1 (Dropout)          (None, 10)                0         
_________________________________________________________________
dense_3 (Dense)              (None, 10)                110       
_________________________________________________________________
leaky_re_lu_3 (LeakyReLU)    (None, 10)                0         
_________________________________________________________________
dropout_2 (Dropout)          (None, 10)                0         
_________________________________________________________________
dense_4 (Dense)              (None, 10)                110       
_________________________________________________________________
leaky_re_lu_4 (LeakyReLU)    (None, 10)                0         
_________________________________________________________________
dropout_3 (Dropout)          (None, 10)                0         
_________________________________________________________________
dense_5 (Dense)              (None, 10)                110       
_________________________________________________________________
leaky_re_lu_5 (LeakyReLU)    (None, 10)                0         
_________________________________________________________________
dropout_4 (Dropout)          (None, 10)                0         
_________________________________________________________________
dense_6 (Dense)              (None, 10)                110       
_________________________________________________________________
leaky_re_lu_6 (LeakyReLU)    (None, 10)                0         
_________________________________________________________________
dropout_5 (Dropout)          (None, 10)                0         
_________________________________________________________________
dense_7 (Dense)              (None, 2)                 22        
_________________________________________________________________
leaky_re_lu_7 (LeakyReLU)    (None, 2)                 0         
=================================================================
Total params: 624
Trainable params: 624
Non-trainable params: 0
_________________________________________________________________
None
Model: "sequential_2"
_________________________________________________________________
Layer (type)                 Output Shape              Param #   
=================================================================
lstm_2 (LSTM)                (None, 4)                 112       
_________________________________________________________________
dense_8 (Dense)              (None, 10)                50        
_________________________________________________________________
leaky_re_lu_8 (LeakyReLU)    (None, 10)                0         
_________________________________________________________________
dropout_6 (Dropout)          (None, 10)                0         
_________________________________________________________________
dense_9 (Dense)              (None, 10)                110       
_________________________________________________________________
leaky_re_lu_9 (LeakyReLU)    (None, 10)                0         
_________________________________________________________________
dropout_7 (Dropout)          (None, 10)                0         
_________________________________________________________________
dense_10 (Dense)             (None, 10)                110       
_________________________________________________________________
leaky_re_lu_10 (LeakyReLU)   (None, 10)                0         
_________________________________________________________________
dropout_8 (Dropout)          (None, 10)                0         
_________________________________________________________________
dense_11 (Dense)             (None, 10)                110       
_________________________________________________________________
leaky_re_lu_11 (LeakyReLU)   (None, 10)                0         
_________________________________________________________________
dropout_9 (Dropout)          (None, 10)                0         
_________________________________________________________________
dense_12 (Dense)             (None, 10)                110       
_________________________________________________________________
leaky_re_lu_12 (LeakyReLU)   (None, 10)                0         
_________________________________________________________________
dropout_10 (Dropout)         (None, 10)                0         
_________________________________________________________________
dense_13 (Dense)             (None, 10)                110       
_________________________________________________________________
leaky_re_lu_13 (LeakyReLU)   (None, 10)                0         
_________________________________________________________________
dropout_11 (Dropout)         (None, 10)                0         
_________________________________________________________________
dense_14 (Dense)             (None, 10)                110       
_________________________________________________________________
leaky_re_lu_14 (LeakyReLU)   (None, 10)                0         
_________________________________________________________________
dropout_12 (Dropout)         (None, 10)                0         
_________________________________________________________________
dense_15 (Dense)             (None, 10)                110       
_________________________________________________________________
leaky_re_lu_15 (LeakyReLU)   (None, 10)                0         
_________________________________________________________________
dropout_13 (Dropout)         (None, 10)                0         
_________________________________________________________________
dense_16 (Dense)             (None, 10)                110       
_________________________________________________________________
leaky_re_lu_16 (LeakyReLU)   (None, 10)                0         
_________________________________________________________________
dropout_14 (Dropout)         (None, 10)                0         
_________________________________________________________________
dense_17 (Dense)             (None, 10)                110       
_________________________________________________________________
leaky_re_lu_17 (LeakyReLU)   (None, 10)                0         
_________________________________________________________________
dropout_15 (Dropout)         (None, 10)                0         
_________________________________________________________________
dense_18 (Dense)             (None, 2)                 22        Model: "sequential"
_________________________________________________________________
Layer (type)                 Output Shape              Param #   
=================================================================
lstm (LSTM)                  (None, 10)                520       
_________________________________________________________________
dense (Dense)                (None, 10)                110       
_________________________________________________________________
leaky_re_lu (LeakyReLU)      (None, 10)                0         
_________________________________________________________________
dropout (Dropout)            (None, 10)                0         
_________________________________________________________________
dense_1 (Dense)              (None, 2)                 22        
_________________________________________________________________
leaky_re_lu_1 (LeakyReLU)    (None, 2)                 0         
=================================================================
Total params: 652
Trainable params: 652
Non-trainable params: 0
_________________________________________________________________
None
Model: "sequential_1"
_________________________________________________________________
Layer (type)                 Output Shape              Param #   
=================================================================
lstm_1 (LSTM)                (None, 4)                 112       
_________________________________________________________________
dense_2 (Dense)              (None, 10)                50        
_________________________________________________________________
leaky_re_lu_2 (LeakyReLU)    (None, 10)                0         
_________________________________________________________________
dropout_1 (Dropout)          (None, 10)                0         
_________________________________________________________________
dense_3 (Dense)              (None, 10)                110       
_________________________________________________________________
leaky_re_lu_3 (LeakyReLU)    (None, 10)                0         
_________________________________________________________________
dropout_2 (Dropout)          (None, 10)                0         
_________________________________________________________________
dense_4 (Dense)              (None, 10)                110       
_________________________________________________________________
leaky_re_lu_4 (LeakyReLU)    (None, 10)                0         
_________________________________________________________________
dropout_3 (Dropout)          (None, 10)                0         
_________________________________________________________________
dense_5 (Dense)              (None, 10)                110       
_________________________________________________________________
leaky_re_lu_5 (LeakyReLU)    (None, 10)                0         
_________________________________________________________________
dropout_4 (Dropout)          (None, 10)                0         
_________________________________________________________________
dense_6 (Dense)              (None, 10)                110       
_________________________________________________________________
leaky_re_lu_6 (LeakyReLU)    (None, 10)                0         
_________________________________________________________________
dropout_5 (Dropout)          (None, 10)                0         
_________________________________________________________________
dense_7 (Dense)              (None, 2)                 22        
_________________________________________________________________
leaky_re_lu_7 (LeakyReLU)    (None, 2)                 0         
=================================================================
Total params: 624
Trainable params: 624
Non-trainable params: 0
_________________________________________________________________
None
Model: "sequential_2"
_________________________________________________________________
Layer (type)                 Output Shape              Param #   
=================================================================
lstm_2 (LSTM)                (None, 4)                 112       
_________________________________________________________________
dense_8 (Dense)              (None, 10)                50        
_________________________________________________________________
leaky_re_lu_8 (LeakyReLU)    (None, 10)                0         
_________________________________________________________________
dropout_6 (Dropout)          (None, 10)                0         
_________________________________________________________________
dense_9 (Dense)              (None, 10)                110       
_________________________________________________________________
leaky_re_lu_9 (LeakyReLU)    (None, 10)                0         
_________________________________________________________________
dropout_7 (Dropout)          (None, 10)                0         
_________________________________________________________________
dense_10 (Dense)             (None, 10)                110       
_________________________________________________________________
leaky_re_lu_10 (LeakyReLU)   (None, 10)                0         
_________________________________________________________________
dropout_8 (Dropout)          (None, 10)                0         
_________________________________________________________________
dense_11 (Dense)             (None, 10)                110       
_________________________________________________________________
leaky_re_lu_11 (LeakyReLU)   (None, 10)                0         
_________________________________________________________________
dropout_9 (Dropout)          (None, 10)                0         
_________________________________________________________________
dense_12 (Dense)             (None, 10)                110       
_________________________________________________________________
leaky_re_lu_12 (LeakyReLU)   (None, 10)                0         
_________________________________________________________________
dropout_10 (Dropout)         (None, 10)                0         
_________________________________________________________________
dense_13 (Dense)             (None, 10)                110       
_________________________________________________________________
leaky_re_lu_13 (LeakyReLU)   (None, 10)                0         
_________________________________________________________________
dropout_11 (Dropout)         (None, 10)                0         
_________________________________________________________________
dense_14 (Dense)             (None, 10)                110       
_________________________________________________________________
leaky_re_lu_14 (LeakyReLU)   (None, 10)                0         
_________________________________________________________________
dropout_12 (Dropout)         (None, 10)                0         
_________________________________________________________________
dense_15 (Dense)             (None, 10)                110       
_________________________________________________________________
leaky_re_lu_15 (LeakyReLU)   (None, 10)                0         
_________________________________________________________________
dropout_13 (Dropout)         (None, 10)                0         
_________________________________________________________________
dense_16 (Dense)             (None, 10)                110       
_________________________________________________________________
leaky_re_lu_16 (LeakyReLU)   (None, 10)                0         
_________________________________________________________________
dropout_14 (Dropout)         (None, 10)                0         
_________________________________________________________________
dense_17 (Dense)             (None, 10)                110       
_________________________________________________________________
leaky_re_lu_17 (LeakyReLU)   (None, 10)                0         
_________________________________________________________________
dropout_15 (Dropout)         (None, 10)                0         
_________________________________________________________________
dense_18 (Dense)             (None, 2)                 22        Model: "sequential"
_________________________________________________________________
Layer (type)                 Output Shape              Param #   
=================================================================
lstm (LSTM)                  (None, 4)                 112       
_________________________________________________________________
dense (Dense)                (None, 10)                50        
_________________________________________________________________
leaky_re_lu (LeakyReLU)      (None, 10)                0         
_________________________________________________________________
dropout (Dropout)            (None, 10)                0         
_________________________________________________________________
dense_1 (Dense)              (None, 2)                 22        
_________________________________________________________________
leaky_re_lu_1 (LeakyReLU)    (None, 2)                 0         
=================================================================
Total params: 184
Trainable params: 184
Non-trainable params: 0
_________________________________________________________________
None
Model: "sequential_1"
_________________________________________________________________
Layer (type)                 Output Shape              Param #   
=================================================================
lstm_1 (LSTM)                (None, 10)                520       
_________________________________________________________________
dense_2 (Dense)              (None, 10)                110       
_________________________________________________________________
leaky_re_lu_2 (LeakyReLU)    (None, 10)                0         
_________________________________________________________________
dropout_1 (Dropout)          (None, 10)                0         
_________________________________________________________________
dense_3 (Dense)              (None, 10)                110       
_________________________________________________________________
leaky_re_lu_3 (LeakyReLU)    (None, 10)                0         
_________________________________________________________________
dropout_2 (Dropout)          (None, 10)                0         
_________________________________________________________________
dense_4 (Dense)              (None, 10)                110       
_________________________________________________________________
leaky_re_lu_4 (LeakyReLU)    (None, 10)                0         
_________________________________________________________________
dropout_3 (Dropout)          (None, 10)                0         
_________________________________________________________________
dense_5 (Dense)              (None, 10)                110       
_________________________________________________________________
leaky_re_lu_5 (LeakyReLU)    (None, 10)                0         
_________________________________________________________________
dropout_4 (Dropout)          (None, 10)                0         
_________________________________________________________________
dense_6 (Dense)              (None, 10)                110       
_________________________________________________________________
leaky_re_lu_6 (LeakyReLU)    (None, 10)                0         
_________________________________________________________________
dropout_5 (Dropout)          (None, 10)                0         
_________________________________________________________________
dense_7 (Dense)              (None, 2)                 22        
_________________________________________________________________
leaky_re_lu_7 (LeakyReLU)    (None, 2)                 0         
=================================================================
Total params: 1,092
Trainable params: 1,092
Non-trainable params: 0
_________________________________________________________________
None
Model: "sequential_2"
_________________________________________________________________
Layer (type)                 Output Shape              Param #   
=================================================================
lstm_2 (LSTM)                (None, 4)                 112       
_________________________________________________________________
dense_8 (Dense)              (None, 10)                50        
_________________________________________________________________
leaky_re_lu_8 (LeakyReLU)    (None, 10)                0         
_________________________________________________________________
dropout_6 (Dropout)          (None, 10)                0         
_________________________________________________________________
dense_9 (Dense)              (None, 10)                110       
_________________________________________________________________
leaky_re_lu_9 (LeakyReLU)    (None, 10)                0         
_________________________________________________________________
dropout_7 (Dropout)          (None, 10)                0         
_________________________________________________________________
dense_10 (Dense)             (None, 10)                110       
_________________________________________________________________
leaky_re_lu_10 (LeakyReLU)   (None, 10)                0         
_________________________________________________________________
dropout_8 (Dropout)          (None, 10)                0         
_________________________________________________________________
dense_11 (Dense)             (None, 10)                110       
_________________________________________________________________
leaky_re_lu_11 (LeakyReLU)   (None, 10)                0         
_________________________________________________________________
dropout_9 (Dropout)          (None, 10)                0         
_________________________________________________________________
dense_12 (Dense)             (None, 10)                110       
_________________________________________________________________
leaky_re_lu_12 (LeakyReLU)   (None, 10)                0         
_________________________________________________________________
dropout_10 (Dropout)         (None, 10)                0         
_________________________________________________________________
dense_13 (Dense)             (None, 10)                110       
_________________________________________________________________
leaky_re_lu_13 (LeakyReLU)   (None, 10)                0         
_________________________________________________________________
dropout_11 (Dropout)         (None, 10)                0         
_________________________________________________________________
dense_14 (Dense)             (None, 10)                110       
_________________________________________________________________
leaky_re_lu_14 (LeakyReLU)   (None, 10)                0         
_________________________________________________________________
dropout_12 (Dropout)         (None, 10)                0         
_________________________________________________________________
dense_15 (Dense)             (None, 10)                110       
_________________________________________________________________
leaky_re_lu_15 (LeakyReLU)   (None, 10)                0         
_________________________________________________________________
dropout_13 (Dropout)         (None, 10)                0         
_________________________________________________________________
dense_16 (Dense)             (None, 10)                110       
_________________________________________________________________
leaky_re_lu_16 (LeakyReLU)   (None, 10)                0         
_________________________________________________________________
dropout_14 (Dropout)         (None, 10)                0         
_________________________________________________________________
dense_17 (Dense)             (None, 10)                110       
_________________________________________________________________
leaky_re_lu_17 (LeakyReLU)   (None, 10)                0         
_________________________________________________________________
dropout_15 (Dropout)         (None, 10)                0         
_________________________________________________________________
dense_18 (Dense)             (None, 2)                 22        Model: "sequential"
_________________________________________________________________
Layer (type)                 Output Shape              Param #   
=================================================================
lstm (LSTM)                  (None, 4)                 112       
_________________________________________________________________
dense (Dense)                (None, 10)                50        
_________________________________________________________________
leaky_re_lu (LeakyReLU)      (None, 10)                0         
_________________________________________________________________
dropout (Dropout)            (None, 10)                0         
_________________________________________________________________
dense_1 (Dense)              (None, 2)                 22        
_________________________________________________________________
leaky_re_lu_1 (LeakyReLU)    (None, 2)                 0         
=================================================================
Total params: 184
Trainable params: 184
Non-trainable params: 0
_________________________________________________________________
None
Model: "sequential_1"
_________________________________________________________________
Layer (type)                 Output Shape              Param #   
=================================================================
lstm_1 (LSTM)                (None, 1)                 16        
_________________________________________________________________
dense_2 (Dense)              (None, 10)                20        
_________________________________________________________________
leaky_re_lu_2 (LeakyReLU)    (None, 10)                0         
_________________________________________________________________
dropout_1 (Dropout)          (None, 10)                0         
_________________________________________________________________
dense_3 (Dense)              (None, 10)                110       
_________________________________________________________________
leaky_re_lu_3 (LeakyReLU)    (None, 10)                0         
_________________________________________________________________
dropout_2 (Dropout)          (None, 10)                0         
_________________________________________________________________
dense_4 (Dense)              (None, 10)                110       
_________________________________________________________________
leaky_re_lu_4 (LeakyReLU)    (None, 10)                0         
_________________________________________________________________
dropout_3 (Dropout)          (None, 10)                0         
_________________________________________________________________
dense_5 (Dense)              (None, 10)                110       
_________________________________________________________________
leaky_re_lu_5 (LeakyReLU)    (None, 10)                0         
_________________________________________________________________
dropout_4 (Dropout)          (None, 10)                0         
_________________________________________________________________
dense_6 (Dense)              (None, 10)                110       
_________________________________________________________________
leaky_re_lu_6 (LeakyReLU)    (None, 10)                0         
_________________________________________________________________
dropout_5 (Dropout)          (None, 10)                0         
_________________________________________________________________
dense_7 (Dense)              (None, 2)                 22        
_________________________________________________________________
leaky_re_lu_7 (LeakyReLU)    (None, 2)                 0         
=================================================================
Total params: 498
Trainable params: 498
Non-trainable params: 0
_________________________________________________________________
None
Model: "sequential_2"
_________________________________________________________________
Layer (type)                 Output Shape              Param #   
=================================================================
lstm_2 (LSTM)                (None, 10)                520       
_________________________________________________________________
dense_8 (Dense)              (None, 10)                110       
_________________________________________________________________
leaky_re_lu_8 (LeakyReLU)    (None, 10)                0         
_________________________________________________________________
dropout_6 (Dropout)          (None, 10)                0         
_________________________________________________________________
dense_9 (Dense)              (None, 10)                110       
_________________________________________________________________
leaky_re_lu_9 (LeakyReLU)    (None, 10)                0         
_________________________________________________________________
dropout_7 (Dropout)          (None, 10)                0         
_________________________________________________________________
dense_10 (Dense)             (None, 10)                110       
_________________________________________________________________
leaky_re_lu_10 (LeakyReLU)   (None, 10)                0         
_________________________________________________________________
dropout_8 (Dropout)          (None, 10)                0         
_________________________________________________________________
dense_11 (Dense)             (None, 10)                110       
_________________________________________________________________
leaky_re_lu_11 (LeakyReLU)   (None, 10)                0         
_________________________________________________________________
dropout_9 (Dropout)          (None, 10)                0         
_________________________________________________________________
dense_12 (Dense)             (None, 10)                110       
_________________________________________________________________
leaky_re_lu_12 (LeakyReLU)   (None, 10)                0         
_________________________________________________________________
dropout_10 (Dropout)         (None, 10)                0         
_________________________________________________________________
dense_13 (Dense)             (None, 2)                 22        
_________________________________________________________________
leaky_re_lu_13 (LeakyReLU)   (None, 2)                 0         
=================================================================
Total params: 1,092
Trainable params: 1,092
Non-trainable params: 0
_________________________________________________________________
None
Model: "sequential_3"
_________________________________________________________________
Layer (type)                 Output Shape              Param #   
=================================================================
lstm_3 (LSTM)                (None, 10)                520       
_________________________________________________________________
dense_14 (Dense)             (None, 10)                110       
_________________________________________________________________
leaky_re_lu_14 (LeakyReLU)   (None, 10)                0         
_________________________________________________________________
dropout_11 (Dropout)         (None, 10)                0         
_________________________________________________________________
dense_15 (Dense)             (None, 10)                110       
_________________________________________________________________
leaky_re_lu_15 (LeakyReLU)   (None, 10)                0         
_________________________________________________________________
dropout_12 (Dropout)         (None, 10)                0         
_________________________________________________________________
dense_16 (Dense)             (None, 10)                110       
_________________________________________________________________
leaky_re_lu_16 (LeakyReLU)   (None, 10)                0         
_________________________________________________________________
dropout_13 (Dropout)         (None, 10)                0         
_________________________________________________________________
dense_17 (Dense)             (None, 10)                110       Model: "sequential"
_________________________________________________________________
Layer (type)                 Output Shape              Param #   
=================================================================
lstm (LSTM)                  (None, 1)                 16        
_________________________________________________________________
dense (Dense)                (None, 10)                20        
_________________________________________________________________
leaky_re_lu (LeakyReLU)      (None, 10)                0         
_________________________________________________________________
dropout (Dropout)            (None, 10)                0         
_________________________________________________________________
dense_1 (Dense)              (None, 2)                 22        
_________________________________________________________________
leaky_re_lu_1 (LeakyReLU)    (None, 2)                 0         
=================================================================
Total params: 58
Trainable params: 58
Non-trainable params: 0
_________________________________________________________________
None
Model: "sequential_1"
_________________________________________________________________
Layer (type)                 Output Shape              Param #   
=================================================================
lstm_1 (LSTM)                (None, 1)                 16        
_________________________________________________________________
dense_2 (Dense)              (None, 10)                20        
_________________________________________________________________
leaky_re_lu_2 (LeakyReLU)    (None, 10)                0         
_________________________________________________________________
dropout_1 (Dropout)          (None, 10)                0         
_________________________________________________________________
dense_3 (Dense)              (None, 10)                110       
_________________________________________________________________
leaky_re_lu_3 (LeakyReLU)    (None, 10)                0         
_________________________________________________________________
dropout_2 (Dropout)          (None, 10)                0         
_________________________________________________________________
dense_4 (Dense)              (None, 10)                110       
_________________________________________________________________
leaky_re_lu_4 (LeakyReLU)    (None, 10)                0         
_________________________________________________________________
dropout_3 (Dropout)          (None, 10)                0         
_________________________________________________________________
dense_5 (Dense)              (None, 10)                110       
_________________________________________________________________
leaky_re_lu_5 (LeakyReLU)    (None, 10)                0         
_________________________________________________________________
dropout_4 (Dropout)          (None, 10)                0         
_________________________________________________________________
dense_6 (Dense)              (None, 10)                110       
_________________________________________________________________
leaky_re_lu_6 (LeakyReLU)    (None, 10)                0         
_________________________________________________________________
dropout_5 (Dropout)          (None, 10)                0         
_________________________________________________________________
dense_7 (Dense)              (None, 2)                 22        
_________________________________________________________________
leaky_re_lu_7 (LeakyReLU)    (None, 2)                 0         
=================================================================
Total params: 498
Trainable params: 498
Non-trainable params: 0
_________________________________________________________________
None
Model: "sequential_2"
_________________________________________________________________
Layer (type)                 Output Shape              Param #   
=================================================================
lstm_2 (LSTM)                (None, 10)                520       
_________________________________________________________________
dense_8 (Dense)              (None, 10)                110       
_________________________________________________________________
leaky_re_lu_8 (LeakyReLU)    (None, 10)                0         
_________________________________________________________________
dropout_6 (Dropout)          (None, 10)                0         
_________________________________________________________________
dense_9 (Dense)              (None, 10)                110       
_________________________________________________________________
leaky_re_lu_9 (LeakyReLU)    (None, 10)                0         
_________________________________________________________________
dropout_7 (Dropout)          (None, 10)                0         
_________________________________________________________________
dense_10 (Dense)             (None, 10)                110       
_________________________________________________________________
leaky_re_lu_10 (LeakyReLU)   (None, 10)                0         
_________________________________________________________________
dropout_8 (Dropout)          (None, 10)                0         
_________________________________________________________________
dense_11 (Dense)             (None, 10)                110       
_________________________________________________________________
leaky_re_lu_11 (LeakyReLU)   (None, 10)                0         
_________________________________________________________________
dropout_9 (Dropout)          (None, 10)                0         
_________________________________________________________________
dense_12 (Dense)             (None, 10)                110       
_________________________________________________________________
leaky_re_lu_12 (LeakyReLU)   (None, 10)                0         
_________________________________________________________________
dropout_10 (Dropout)         (None, 10)                0         
_________________________________________________________________
dense_13 (Dense)             (None, 2)                 22        
_________________________________________________________________
leaky_re_lu_13 (LeakyReLU)   (None, 2)                 0         
=================================================================
Total params: 1,092
Trainable params: 1,092
Non-trainable params: 0
_________________________________________________________________
None
Model: "sequential_3"
_________________________________________________________________
Layer (type)                 Output Shape              Param #   
=================================================================
lstm_3 (LSTM)                (None, 10)                520       
_________________________________________________________________
dense_14 (Dense)             (None, 10)                110       
_________________________________________________________________
leaky_re_lu_14 (LeakyReLU)   (None, 10)                0         
_________________________________________________________________
dropout_11 (Dropout)         (None, 10)                0         
_________________________________________________________________
dense_15 (Dense)             (None, 10)                110       
_________________________________________________________________
leaky_re_lu_15 (LeakyReLU)   (None, 10)                0         
_________________________________________________________________
dropout_12 (Dropout)         (None, 10)                0         
_________________________________________________________________
dense_16 (Dense)             (None, 10)                110       
_________________________________________________________________
leaky_re_lu_16 (LeakyReLU)   (None, 10)                0         
_________________________________________________________________
dropout_13 (Dropout)         (None, 10)                0         
_________________________________________________________________
dense_17 (Dense)             (None, 10)                110       Model: "sequential"
_________________________________________________________________
Layer (type)                 Output Shape              Param #   
=================================================================
lstm (LSTM)                  (None, 1)                 16        
_________________________________________________________________
dense (Dense)                (None, 10)                20        
_________________________________________________________________
leaky_re_lu (LeakyReLU)      (None, 10)                0         
_________________________________________________________________
dropout (Dropout)            (None, 10)                0         
_________________________________________________________________
dense_1 (Dense)              (None, 2)                 22        
_________________________________________________________________
leaky_re_lu_1 (LeakyReLU)    (None, 2)                 0         
=================================================================
Total params: 58
Trainable params: 58
Non-trainable params: 0
_________________________________________________________________
None
Model: "sequential_1"
_________________________________________________________________
Layer (type)                 Output Shape              Param #   
=================================================================
lstm_1 (LSTM)                (None, 10)                520       
_________________________________________________________________
dense_2 (Dense)              (None, 10)                110       
_________________________________________________________________
leaky_re_lu_2 (LeakyReLU)    (None, 10)                0         
_________________________________________________________________
dropout_1 (Dropout)          (None, 10)                0         
_________________________________________________________________
dense_3 (Dense)              (None, 2)                 22        
_________________________________________________________________
leaky_re_lu_3 (LeakyReLU)    (None, 2)                 0         
=================================================================
Total params: 652
Trainable params: 652
Non-trainable params: 0
_________________________________________________________________
None
Model: "sequential_2"
_________________________________________________________________
Layer (type)                 Output Shape              Param #   
=================================================================
lstm_2 (LSTM)                (None, 1)                 16        
_________________________________________________________________
dense_4 (Dense)              (None, 10)                20        
_________________________________________________________________
leaky_re_lu_4 (LeakyReLU)    (None, 10)                0         
_________________________________________________________________
dropout_2 (Dropout)          (None, 10)                0         
_________________________________________________________________
dense_5 (Dense)              (None, 10)                110       
_________________________________________________________________
leaky_re_lu_5 (LeakyReLU)    (None, 10)                0         
_________________________________________________________________
dropout_3 (Dropout)          (None, 10)                0         
_________________________________________________________________
dense_6 (Dense)              (None, 10)                110       
_________________________________________________________________
leaky_re_lu_6 (LeakyReLU)    (None, 10)                0         
_________________________________________________________________
dropout_4 (Dropout)          (None, 10)                0         
_________________________________________________________________
dense_7 (Dense)              (None, 10)                110       
_________________________________________________________________
leaky_re_lu_7 (LeakyReLU)    (None, 10)                0         
_________________________________________________________________
dropout_5 (Dropout)          (None, 10)                0         
_________________________________________________________________
dense_8 (Dense)              (None, 10)                110       
_________________________________________________________________
leaky_re_lu_8 (LeakyReLU)    (None, 10)                0         
_________________________________________________________________
dropout_6 (Dropout)          (None, 10)                0         
_________________________________________________________________
dense_9 (Dense)              (None, 10)                110       
_________________________________________________________________
leaky_re_lu_9 (LeakyReLU)    (None, 10)                0         
_________________________________________________________________
dropout_7 (Dropout)          (None, 10)                0         
_________________________________________________________________
dense_10 (Dense)             (None, 10)                110       
_________________________________________________________________
leaky_re_lu_10 (LeakyReLU)   (None, 10)                0         
_________________________________________________________________
dropout_8 (Dropout)          (None, 10)                0         
_________________________________________________________________
dense_11 (Dense)             (None, 10)                110       
_________________________________________________________________
leaky_re_lu_11 (LeakyReLU)   (None, 10)                0         
_________________________________________________________________
dropout_9 (Dropout)          (None, 10)                0         
_________________________________________________________________
dense_12 (Dense)             (None, 10)                110       
_________________________________________________________________
leaky_re_lu_12 (LeakyReLU)   (None, 10)                0         
_________________________________________________________________
dropout_10 (Dropout)         (None, 10)                0         
_________________________________________________________________
dense_13 (Dense)             (None, 10)                110       
_________________________________________________________________
leaky_re_lu_13 (LeakyReLU)   (None, 10)                0         
_________________________________________________________________
dropout_11 (Dropout)         (None, 10)                0         
_________________________________________________________________
dense_14 (Dense)             (None, 2)                 22        
_________________________________________________________________
leaky_re_lu_14 (LeakyReLU)   (None, 2)                 0         
=================================================================
Total params: 1,048
Trainable params: 1,048
Non-trainable params: 0
_________________________________________________________________
None
Model: "sequential_3"
_________________________________________________________________
Layer (type)                 Output Shape              Param #   
=================================================================
lstm_3 (LSTM)                (None, 10)                520       
_________________________________________________________________
dense_15 (Dense)             (None, 10)                110       
_________________________________________________________________
leaky_re_lu_15 (LeakyReLU)   (None, 10)                0         
_________________________________________________________________
dropout_12 (Dropout)         (None, 10)                0         
_________________________________________________________________
dense_16 (Dense)             (None, 10)                110       
_________________________________________________________________
leaky_re_lu_16 (LeakyReLU)   (None, 10)                0         
_________________________________________________________________
dropout_13 (Dropout)         (None, 10)                0         
_________________________________________________________________
dense_17 (Dense)             (None, 10)                110       
_________________________________________________________________
leaky_re_lu_17 (LeakyReLU)   (None, 10)                0         
_________________________________________________________________
dropout_14 (Dropout)         (None, 10)                0         
_________________________________________________________________
dense_18 (Dense)             (None, 10)                110       
_________________________________________________________________
leaky_re_lu_18 (LeakyReLU)   (None, 10)                0         
_________________________________________________________________
dropout_15 (Dropout)         (None, 10)                0         
_________________________________________________________________
dense_19 (Dense)             (None, 10)                110       
_________________________________________________________________
leaky_re_lu_19 (LeakyReLU)   (None, 10)                0         
_________________________________________________________________
dropout_16 (Dropout)         (None, 10)                0         
_________________________________________________________________
dense_20 (Dense)             (None, 10)                110       
_________________________________________________________________
leaky_re_lu_20 (LeakyReLU)   (None, 10)                0         
_________________________________________________________________
dropout_17 (Dropout)         (None, 10)                0         
_________________________________________________________________
dense_21 (Dense)             (None, 10)                110       
_________________________________________________________________
leaky_re_lu_21 (LeakyReLU)   (None, 10)                0         
_________________________________________________________________
dropout_18 (Dropout)         (None, 10)                0         
_________________________________________________________________
dense_22 (Dense)             (None, 10)                110       
_________________________________________________________________
leaky_re_lu_22 (LeakyReLU)   (None, 10)                0         
_________________________________________________________________
dropout_19 (Dropout)         (None, 10)                0         
_________________________________________________________________
dense_23 (Dense)             (None, 10)                110       
_________________________________________________________________
leaky_re_lu_23 (LeakyReLU)   (None, 10)                0         
_________________________________________________________________
dropout_20 (Dropout)         (None, 10)                0         
_________________________________________________________________
dense_24 (Dense)             (None, 10)                110       
_________________________________________________________________
leaky_re_lu_24 (LeakyReLU)   (None, 10)                0         
_________________________________________________________________
dropout_21 (Dropout)         (None, 10)                0         
_________________________________________________________________
dense_25 (Dense)             (None, 2)                 22        
_________________________________________________________________
leaky_re_lu_25 (LeakyReLU)   (None, 2)                 0         
=================================================================
Total params: 1,642
Trainable params: 1,642
Non-trainable params: 0
_________________________________________________________________
None
Model: "sequential_4"
_________________________________________________________________
Layer (type)                 Output Shape              Param #   
=================================================================
lstm_4 (LSTM)                (None, 1)                 16        
_________________________________________________________________
dense_26 (Dense)             (None, 20)                40        
_________________________________________________________________
leaky_re_lu_26 (LeakyReLU)   (None, 20)                0         
_________________________________________________________________
dropout_22 (Dropout)         (None, 20)                0         
_________________________________________________________________
dense_27 (Dense)             (None, 20)                420       
_________________________________________________________________
leaky_re_lu_27 (LeakyReLU)   (None, 20)                0         
_________________________________________________________________
dropout_23 (Dropout)         (None, 20)                0         
_________________________________________________________________
dense_28 (Dense)             (None, 20)                420       
_________________________________________________________________
leaky_re_lu_28 (LeakyReLU)   (None, 20)                0         
_________________________________________________________________
dropout_24 (Dropout)         (None, 20)                0         
_________________________________________________________________
dense_29 (Dense)             (None, 20)                420       
_________________________________________________________________
leaky_re_lu_29 (LeakyReLU)   (None, 20)                0         
_________________________________________________________________
dropout_25 (Dropout)         (None, 20)                0         
_________________________________________________________________
dense_30 (Dense)             (None, 20)                420       
_________________________________________________________________
leaky_re_lu_30 (LeakyReLU)   (None, 20)                0         
_________________________________________________________________
dropout_26 (Dropout)         (None, 20)                0         
_________________________________________________________________
dense_31 (Dense)             (None, 2)                 42        
_________________________________________________________________
leaky_re_lu_31 (LeakyReLU)   (None, 2)                 0         
=================================================================
Total params: 1,778
Trainable params: 1,778
Non-trainable params: 0
_________________________________________________________________
None
Model: "sequential_5"
_________________________________________________________________
Layer (type)                 Output Shape              Param #   
=================================================================
lstm_5 (LSTM)                (None, 10)                520       
_________________________________________________________________
dense_32 (Dense)             (None, 20)                220       
_________________________________________________________________
leaky_re_lu_32 (LeakyReLU)   (None, 20)                0         
_________________________________________________________________
dropout_27 (Dropout)         (None, 20)                0         
_________________________________________________________________
dense_33 (Dense)             (None, 20)                420       
_________________________________________________________________
leaky_re_lu_33 (LeakyReLU)   (None, 20)                0         
_________________________________________________________________
dropout_28 (Dropout)         (None, 20)                0         
_________________________________________________________________
dense_34 (Dense)             (None, 20)                420       
_________________________________________________________________
leaky_re_lu_34 (LeakyReLU)   (None, 20)                0         
_________________________________________________________________
dropout_29 (Dropout)         (None, 20)                0         
_________________________________________________________________
dense_35 (Dense)             (None, 20)                420       
_________________________________________________________________
leaky_re_lu_35 (LeakyReLU)   (None, 20)                0         
_________________________________________________________________
dropout_30 (Dropout)         (None, 20)                0         
_________________________________________________________________
dense_36 (Dense)             (None, 20)                420       
_________________________________________________________________
leaky_re_lu_18 (LeakyReLU)   (None, 2)                 0         
=================================================================
Total params: 1,174
Trainable params: 1,174
Non-trainable params: 0
_________________________________________________________________
None
Model: "sequential_3"
_________________________________________________________________
Layer (type)                 Output Shape              Param #   
=================================================================
lstm_3 (LSTM)                (None, 1)                 16        
_________________________________________________________________
dense_19 (Dense)             (None, 20)                40        
_________________________________________________________________
leaky_re_lu_19 (LeakyReLU)   (None, 20)                0         
_________________________________________________________________
dropout_16 (Dropout)         (None, 20)                0         
_________________________________________________________________
dense_20 (Dense)             (None, 2)                 42        
_________________________________________________________________
leaky_re_lu_20 (LeakyReLU)   (None, 2)                 0         
=================================================================
Total params: 98
Trainable params: 98
Non-trainable params: 0
_________________________________________________________________
None
Model: "sequential_4"
_________________________________________________________________
Layer (type)                 Output Shape              Param #   
=================================================================
lstm_4 (LSTM)                (None, 1)                 16        
_________________________________________________________________
dense_21 (Dense)             (None, 20)                40        
_________________________________________________________________
leaky_re_lu_21 (LeakyReLU)   (None, 20)                0         
_________________________________________________________________
dropout_17 (Dropout)         (None, 20)                0         
_________________________________________________________________
dense_22 (Dense)             (None, 20)                420       
_________________________________________________________________
leaky_re_lu_22 (LeakyReLU)   (None, 20)                0         
_________________________________________________________________
dropout_18 (Dropout)         (None, 20)                0         
_________________________________________________________________
dense_23 (Dense)             (None, 20)                420       
_________________________________________________________________
leaky_re_lu_23 (LeakyReLU)   (None, 20)                0         
_________________________________________________________________
dropout_19 (Dropout)         (None, 20)                0         
_________________________________________________________________
dense_24 (Dense)             (None, 20)                420       
_________________________________________________________________
leaky_re_lu_24 (LeakyReLU)   (None, 20)                0         
_________________________________________________________________
dropout_20 (Dropout)         (None, 20)                0         
_________________________________________________________________
dense_25 (Dense)             (None, 20)                420       
_________________________________________________________________
leaky_re_lu_25 (LeakyReLU)   (None, 20)                0         
_________________________________________________________________
dropout_21 (Dropout)         (None, 20)                0         
_________________________________________________________________
dense_26 (Dense)             (None, 2)                 42        
_________________________________________________________________
leaky_re_lu_26 (LeakyReLU)   (None, 2)                 0         
=================================================================
Total params: 1,778
Trainable params: 1,778
Non-trainable params: 0
_________________________________________________________________
None
Model: "sequential_5"
_________________________________________________________________
Layer (type)                 Output Shape              Param #   
=================================================================
lstm_5 (LSTM)                (None, 1)                 16        
_________________________________________________________________
dense_27 (Dense)             (None, 20)                40        
_________________________________________________________________
leaky_re_lu_27 (LeakyReLU)   (None, 20)                0         
_________________________________________________________________
dropout_22 (Dropout)         (None, 20)                0         
_________________________________________________________________
dense_28 (Dense)             (None, 20)                420       
_________________________________________________________________
leaky_re_lu_28 (LeakyReLU)   (None, 20)                0         
_________________________________________________________________
dropout_23 (Dropout)         (None, 20)                0         
_________________________________________________________________
dense_29 (Dense)             (None, 20)                420       
_________________________________________________________________
leaky_re_lu_29 (LeakyReLU)   (None, 20)                0         
_________________________________________________________________
dropout_24 (Dropout)         (None, 20)                0         
_________________________________________________________________
dense_30 (Dense)             (None, 20)                420       
_________________________________________________________________
leaky_re_lu_30 (LeakyReLU)   (None, 20)                0         
_________________________________________________________________
dropout_25 (Dropout)         (None, 20)                0         
_________________________________________________________________
dense_31 (Dense)             (None, 20)                420       
_________________________________________________________________
leaky_re_lu_31 (LeakyReLU)   (None, 20)                0         
_________________________________________________________________
dropout_26 (Dropout)         (None, 20)                0         
_________________________________________________________________
dense_32 (Dense)             (None, 20)                420       
_________________________________________________________________
leaky_re_lu_32 (LeakyReLU)   (None, 20)                0         
_________________________________________________________________
dropout_27 (Dropout)         (None, 20)                0         
_________________________________________________________________
dense_33 (Dense)             (None, 20)                420       
_________________________________________________________________
leaky_re_lu_33 (LeakyReLU)   (None, 20)                0         
_________________________________________________________________
dropout_28 (Dropout)         (None, 20)                0         
_________________________________________________________________
dense_34 (Dense)             (None, 20)                420       
_________________________________________________________________
leaky_re_lu_34 (LeakyReLU)   (None, 20)                0         
_________________________________________________________________
dropout_29 (Dropout)         (None, 20)                0         
_________________________________________________________________
dense_35 (Dense)             (None, 20)                420       
_________________________________________________________________
leaky_re_lu_35 (LeakyReLU)   (None, 20)                0         
_________________________________________________________________
dropout_30 (Dropout)         (None, 20)                0         
_________________________________________________________________
dense_36 (Dense)             (None, 20)                420       
_________________________________________________________________
leaky_re_lu_18 (LeakyReLU)   (None, 2)                 0         
=================================================================
Total params: 1,174
Trainable params: 1,174
Non-trainable params: 0
_________________________________________________________________
None
Model: "sequential_3"
_________________________________________________________________
Layer (type)                 Output Shape              Param #   
=================================================================
lstm_3 (LSTM)                (None, 4)                 112       
_________________________________________________________________
dense_19 (Dense)             (None, 20)                100       
_________________________________________________________________
leaky_re_lu_19 (LeakyReLU)   (None, 20)                0         
_________________________________________________________________
dropout_16 (Dropout)         (None, 20)                0         
_________________________________________________________________
dense_20 (Dense)             (None, 2)                 42        
_________________________________________________________________
leaky_re_lu_20 (LeakyReLU)   (None, 2)                 0         
=================================================================
Total params: 254
Trainable params: 254
Non-trainable params: 0
_________________________________________________________________
None
Model: "sequential_4"
_________________________________________________________________
Layer (type)                 Output Shape              Param #   
=================================================================
lstm_4 (LSTM)                (None, 1)                 16        
_________________________________________________________________
dense_21 (Dense)             (None, 20)                40        
_________________________________________________________________
leaky_re_lu_21 (LeakyReLU)   (None, 20)                0         
_________________________________________________________________
dropout_17 (Dropout)         (None, 20)                0         
_________________________________________________________________
dense_22 (Dense)             (None, 20)                420       
_________________________________________________________________
leaky_re_lu_22 (LeakyReLU)   (None, 20)                0         
_________________________________________________________________
dropout_18 (Dropout)         (None, 20)                0         
_________________________________________________________________
dense_23 (Dense)             (None, 20)                420       
_________________________________________________________________
leaky_re_lu_23 (LeakyReLU)   (None, 20)                0         
_________________________________________________________________
dropout_19 (Dropout)         (None, 20)                0         
_________________________________________________________________
dense_24 (Dense)             (None, 20)                420       
_________________________________________________________________
leaky_re_lu_24 (LeakyReLU)   (None, 20)                0         
_________________________________________________________________
dropout_20 (Dropout)         (None, 20)                0         
_________________________________________________________________
dense_25 (Dense)             (None, 20)                420       
_________________________________________________________________
leaky_re_lu_25 (LeakyReLU)   (None, 20)                0         
_________________________________________________________________
dropout_21 (Dropout)         (None, 20)                0         
_________________________________________________________________
dense_26 (Dense)             (None, 2)                 42        
_________________________________________________________________
leaky_re_lu_26 (LeakyReLU)   (None, 2)                 0         
=================================================================
Total params: 1,778
Trainable params: 1,778
Non-trainable params: 0
_________________________________________________________________
None
Model: "sequential_5"
_________________________________________________________________
Layer (type)                 Output Shape              Param #   
=================================================================
lstm_5 (LSTM)                (None, 1)                 16        
_________________________________________________________________
dense_27 (Dense)             (None, 20)                40        
_________________________________________________________________
leaky_re_lu_27 (LeakyReLU)   (None, 20)                0         
_________________________________________________________________
dropout_22 (Dropout)         (None, 20)                0         
_________________________________________________________________
dense_28 (Dense)             (None, 20)                420       
_________________________________________________________________
leaky_re_lu_28 (LeakyReLU)   (None, 20)                0         
_________________________________________________________________
dropout_23 (Dropout)         (None, 20)                0         
_________________________________________________________________
dense_29 (Dense)             (None, 20)                420       
_________________________________________________________________
leaky_re_lu_29 (LeakyReLU)   (None, 20)                0         
_________________________________________________________________
dropout_24 (Dropout)         (None, 20)                0         
_________________________________________________________________
dense_30 (Dense)             (None, 20)                420       
_________________________________________________________________
leaky_re_lu_30 (LeakyReLU)   (None, 20)                0         
_________________________________________________________________
dropout_25 (Dropout)         (None, 20)                0         
_________________________________________________________________
dense_31 (Dense)             (None, 20)                420       
_________________________________________________________________
leaky_re_lu_31 (LeakyReLU)   (None, 20)                0         
_________________________________________________________________
dropout_26 (Dropout)         (None, 20)                0         
_________________________________________________________________
dense_32 (Dense)             (None, 20)                420       
_________________________________________________________________
leaky_re_lu_32 (LeakyReLU)   (None, 20)                0         
_________________________________________________________________
dropout_27 (Dropout)         (None, 20)                0         
_________________________________________________________________
dense_33 (Dense)             (None, 20)                420       
_________________________________________________________________
leaky_re_lu_33 (LeakyReLU)   (None, 20)                0         
_________________________________________________________________
dropout_28 (Dropout)         (None, 20)                0         
_________________________________________________________________
dense_34 (Dense)             (None, 20)                420       
_________________________________________________________________
leaky_re_lu_34 (LeakyReLU)   (None, 20)                0         
_________________________________________________________________
dropout_29 (Dropout)         (None, 20)                0         
_________________________________________________________________
dense_35 (Dense)             (None, 20)                420       
_________________________________________________________________
leaky_re_lu_35 (LeakyReLU)   (None, 20)                0         
_________________________________________________________________
dropout_30 (Dropout)         (None, 20)                0         
_________________________________________________________________
dense_36 (Dense)             (None, 20)                420       
_________________________________________________________________
leaky_re_lu_18 (LeakyReLU)   (None, 2)                 0         
=================================================================
Total params: 1,174
Trainable params: 1,174
Non-trainable params: 0
_________________________________________________________________
None
Model: "sequential_3"
_________________________________________________________________
Layer (type)                 Output Shape              Param #   
=================================================================
lstm_3 (LSTM)                (None, 4)                 112       
_________________________________________________________________
dense_19 (Dense)             (None, 20)                100       
_________________________________________________________________
leaky_re_lu_19 (LeakyReLU)   (None, 20)                0         
_________________________________________________________________
dropout_16 (Dropout)         (None, 20)                0         
_________________________________________________________________
dense_20 (Dense)             (None, 2)                 42        
_________________________________________________________________
leaky_re_lu_20 (LeakyReLU)   (None, 2)                 0         
=================================================================
Total params: 254
Trainable params: 254
Non-trainable params: 0
_________________________________________________________________
None
Model: "sequential_4"
_________________________________________________________________
Layer (type)                 Output Shape              Param #   
=================================================================
lstm_4 (LSTM)                (None, 4)                 112       
_________________________________________________________________
dense_21 (Dense)             (None, 20)                100       
_________________________________________________________________
leaky_re_lu_21 (LeakyReLU)   (None, 20)                0         
_________________________________________________________________
dropout_17 (Dropout)         (None, 20)                0         
_________________________________________________________________
dense_22 (Dense)             (None, 20)                420       
_________________________________________________________________
leaky_re_lu_22 (LeakyReLU)   (None, 20)                0         
_________________________________________________________________
dropout_18 (Dropout)         (None, 20)                0         
_________________________________________________________________
dense_23 (Dense)             (None, 20)                420       
_________________________________________________________________
leaky_re_lu_23 (LeakyReLU)   (None, 20)                0         
_________________________________________________________________
dropout_19 (Dropout)         (None, 20)                0         
_________________________________________________________________
dense_24 (Dense)             (None, 20)                420       
_________________________________________________________________
leaky_re_lu_24 (LeakyReLU)   (None, 20)                0         
_________________________________________________________________
dropout_20 (Dropout)         (None, 20)                0         
_________________________________________________________________
dense_25 (Dense)             (None, 20)                420       
_________________________________________________________________
leaky_re_lu_25 (LeakyReLU)   (None, 20)                0         
_________________________________________________________________
dropout_21 (Dropout)         (None, 20)                0         
_________________________________________________________________
dense_26 (Dense)             (None, 2)                 42        
_________________________________________________________________
leaky_re_lu_26 (LeakyReLU)   (None, 2)                 0         
=================================================================
Total params: 1,934
Trainable params: 1,934
Non-trainable params: 0
_________________________________________________________________
None
Model: "sequential_5"
_________________________________________________________________
Layer (type)                 Output Shape              Param #   
=================================================================
lstm_5 (LSTM)                (None, 1)                 16        
_________________________________________________________________
dense_27 (Dense)             (None, 20)                40        
_________________________________________________________________
leaky_re_lu_27 (LeakyReLU)   (None, 20)                0         
_________________________________________________________________
dropout_22 (Dropout)         (None, 20)                0         
_________________________________________________________________
dense_28 (Dense)             (None, 20)                420       
_________________________________________________________________
leaky_re_lu_28 (LeakyReLU)   (None, 20)                0         
_________________________________________________________________
dropout_23 (Dropout)         (None, 20)                0         
_________________________________________________________________
dense_29 (Dense)             (None, 20)                420       
_________________________________________________________________
leaky_re_lu_29 (LeakyReLU)   (None, 20)                0         
_________________________________________________________________
dropout_24 (Dropout)         (None, 20)                0         
_________________________________________________________________
dense_30 (Dense)             (None, 20)                420       
_________________________________________________________________
leaky_re_lu_30 (LeakyReLU)   (None, 20)                0         
_________________________________________________________________
dropout_25 (Dropout)         (None, 20)                0         
_________________________________________________________________
dense_31 (Dense)             (None, 20)                420       
_________________________________________________________________
leaky_re_lu_31 (LeakyReLU)   (None, 20)                0         
_________________________________________________________________
dropout_26 (Dropout)         (None, 20)                0         
_________________________________________________________________
dense_32 (Dense)             (None, 20)                420       
_________________________________________________________________
leaky_re_lu_32 (LeakyReLU)   (None, 20)                0         
_________________________________________________________________
dropout_27 (Dropout)         (None, 20)                0         
_________________________________________________________________
dense_33 (Dense)             (None, 20)                420       
_________________________________________________________________
leaky_re_lu_33 (LeakyReLU)   (None, 20)                0         
_________________________________________________________________
dropout_28 (Dropout)         (None, 20)                0         
_________________________________________________________________
dense_34 (Dense)             (None, 20)                420       
_________________________________________________________________
leaky_re_lu_34 (LeakyReLU)   (None, 20)                0         
_________________________________________________________________
dropout_29 (Dropout)         (None, 20)                0         
_________________________________________________________________
dense_35 (Dense)             (None, 20)                420       
_________________________________________________________________
leaky_re_lu_35 (LeakyReLU)   (None, 20)                0         
_________________________________________________________________
dropout_30 (Dropout)         (None, 20)                0         
_________________________________________________________________
dense_36 (Dense)             (None, 20)                420       
_________________________________________________________________
leaky_re_lu_17 (LeakyReLU)   (None, 10)                0         
_________________________________________________________________
dropout_14 (Dropout)         (None, 10)                0         
_________________________________________________________________
dense_18 (Dense)             (None, 10)                110       
_________________________________________________________________
leaky_re_lu_18 (LeakyReLU)   (None, 10)                0         
_________________________________________________________________
dropout_15 (Dropout)         (None, 10)                0         
_________________________________________________________________
dense_19 (Dense)             (None, 10)                110       
_________________________________________________________________
leaky_re_lu_19 (LeakyReLU)   (None, 10)                0         
_________________________________________________________________
dropout_16 (Dropout)         (None, 10)                0         
_________________________________________________________________
dense_20 (Dense)             (None, 10)                110       
_________________________________________________________________
leaky_re_lu_20 (LeakyReLU)   (None, 10)                0         
_________________________________________________________________
dropout_17 (Dropout)         (None, 10)                0         
_________________________________________________________________
dense_21 (Dense)             (None, 10)                110       
_________________________________________________________________
leaky_re_lu_21 (LeakyReLU)   (None, 10)                0         
_________________________________________________________________
dropout_18 (Dropout)         (None, 10)                0         
_________________________________________________________________
dense_22 (Dense)             (None, 10)                110       
_________________________________________________________________
leaky_re_lu_22 (LeakyReLU)   (None, 10)                0         
_________________________________________________________________
dropout_19 (Dropout)         (None, 10)                0         
_________________________________________________________________
dense_23 (Dense)             (None, 10)                110       
_________________________________________________________________
leaky_re_lu_23 (LeakyReLU)   (None, 10)                0         
_________________________________________________________________
dropout_20 (Dropout)         (None, 10)                0         
_________________________________________________________________
dense_24 (Dense)             (None, 2)                 22        
_________________________________________________________________
leaky_re_lu_24 (LeakyReLU)   (None, 2)                 0         
=================================================================
Total params: 1,642
Trainable params: 1,642
Non-trainable params: 0
_________________________________________________________________
None
Model: "sequential_4"
_________________________________________________________________
Layer (type)                 Output Shape              Param #   
=================================================================
lstm_4 (LSTM)                (None, 10)                520       
_________________________________________________________________
dense_25 (Dense)             (None, 20)                220       
_________________________________________________________________
leaky_re_lu_25 (LeakyReLU)   (None, 20)                0         
_________________________________________________________________
dropout_21 (Dropout)         (None, 20)                0         
_________________________________________________________________
dense_26 (Dense)             (None, 2)                 42        
_________________________________________________________________
leaky_re_lu_26 (LeakyReLU)   (None, 2)                 0         
=================================================================
Total params: 782
Trainable params: 782
Non-trainable params: 0
_________________________________________________________________
None
Model: "sequential_5"
_________________________________________________________________
Layer (type)                 Output Shape              Param #   
=================================================================
lstm_5 (LSTM)                (None, 4)                 112       
_________________________________________________________________
dense_27 (Dense)             (None, 20)                100       
_________________________________________________________________
leaky_re_lu_27 (LeakyReLU)   (None, 20)                0         
_________________________________________________________________
dropout_22 (Dropout)         (None, 20)                0         
_________________________________________________________________
dense_28 (Dense)             (None, 20)                420       
_________________________________________________________________
leaky_re_lu_28 (LeakyReLU)   (None, 20)                0         
_________________________________________________________________
dropout_23 (Dropout)         (None, 20)                0         
_________________________________________________________________
dense_29 (Dense)             (None, 20)                420       
_________________________________________________________________
leaky_re_lu_29 (LeakyReLU)   (None, 20)                0         
_________________________________________________________________
dropout_24 (Dropout)         (None, 20)                0         
_________________________________________________________________
dense_30 (Dense)             (None, 20)                420       
_________________________________________________________________
leaky_re_lu_30 (LeakyReLU)   (None, 20)                0         
_________________________________________________________________
dropout_25 (Dropout)         (None, 20)                0         
_________________________________________________________________
dense_31 (Dense)             (None, 20)                420       
_________________________________________________________________
leaky_re_lu_31 (LeakyReLU)   (None, 20)                0         
_________________________________________________________________
dropout_26 (Dropout)         (None, 20)                0         
_________________________________________________________________
dense_32 (Dense)             (None, 2)                 42        
_________________________________________________________________
leaky_re_lu_32 (LeakyReLU)   (None, 2)                 0         
=================================================================
Total params: 1,934
Trainable params: 1,934
Non-trainable params: 0
_________________________________________________________________
None
Model: "sequential_6"
_________________________________________________________________
Layer (type)                 Output Shape              Param #   
=================================================================
lstm_6 (LSTM)                (None, 4)                 112       
_________________________________________________________________
dense_33 (Dense)             (None, 20)                100       
_________________________________________________________________
leaky_re_lu_33 (LeakyReLU)   (None, 20)                0         
_________________________________________________________________
dropout_27 (Dropout)         (None, 20)                0         
_________________________________________________________________
dense_34 (Dense)             (None, 20)                420       
_________________________________________________________________
leaky_re_lu_34 (LeakyReLU)   (None, 20)                0         
_________________________________________________________________
dropout_28 (Dropout)         (None, 20)                0         
_________________________________________________________________
dense_35 (Dense)             (None, 20)                420       
_________________________________________________________________
leaky_re_lu_18 (LeakyReLU)   (None, 2)                 0         
=================================================================
Total params: 1,048
Trainable params: 1,048
Non-trainable params: 0
_________________________________________________________________
None
Model: "sequential_3"
_________________________________________________________________
Layer (type)                 Output Shape              Param #   
=================================================================
lstm_3 (LSTM)                (None, 1)                 16        
_________________________________________________________________
dense_19 (Dense)             (None, 20)                40        
_________________________________________________________________
leaky_re_lu_19 (LeakyReLU)   (None, 20)                0         
_________________________________________________________________
dropout_16 (Dropout)         (None, 20)                0         
_________________________________________________________________
dense_20 (Dense)             (None, 2)                 42        
_________________________________________________________________
leaky_re_lu_20 (LeakyReLU)   (None, 2)                 0         
=================================================================
Total params: 98
Trainable params: 98
Non-trainable params: 0
_________________________________________________________________
None
Model: "sequential_4"
_________________________________________________________________
Layer (type)                 Output Shape              Param #   
=================================================================
lstm_4 (LSTM)                (None, 10)                520       
_________________________________________________________________
dense_21 (Dense)             (None, 20)                220       
_________________________________________________________________
leaky_re_lu_21 (LeakyReLU)   (None, 20)                0         
_________________________________________________________________
dropout_17 (Dropout)         (None, 20)                0         
_________________________________________________________________
dense_22 (Dense)             (None, 2)                 42        
_________________________________________________________________
leaky_re_lu_22 (LeakyReLU)   (None, 2)                 0         
=================================================================
Total params: 782
Trainable params: 782
Non-trainable params: 0
_________________________________________________________________
None
Model: "sequential_5"
_________________________________________________________________
Layer (type)                 Output Shape              Param #   
=================================================================
lstm_5 (LSTM)                (None, 10)                520       
_________________________________________________________________
dense_23 (Dense)             (None, 20)                220       
_________________________________________________________________
leaky_re_lu_23 (LeakyReLU)   (None, 20)                0         
_________________________________________________________________
dropout_18 (Dropout)         (None, 20)                0         
_________________________________________________________________
dense_24 (Dense)             (None, 20)                420       
_________________________________________________________________
leaky_re_lu_24 (LeakyReLU)   (None, 20)                0         
_________________________________________________________________
dropout_19 (Dropout)         (None, 20)                0         
_________________________________________________________________
dense_25 (Dense)             (None, 20)                420       
_________________________________________________________________
leaky_re_lu_25 (LeakyReLU)   (None, 20)                0         
_________________________________________________________________
dropout_20 (Dropout)         (None, 20)                0         
_________________________________________________________________
dense_26 (Dense)             (None, 20)                420       
_________________________________________________________________
leaky_re_lu_26 (LeakyReLU)   (None, 20)                0         
_________________________________________________________________
dropout_21 (Dropout)         (None, 20)                0         
_________________________________________________________________
dense_27 (Dense)             (None, 20)                420       
_________________________________________________________________
leaky_re_lu_27 (LeakyReLU)   (None, 20)                0         
_________________________________________________________________
dropout_22 (Dropout)         (None, 20)                0         
_________________________________________________________________
dense_28 (Dense)             (None, 2)                 42        
_________________________________________________________________
leaky_re_lu_28 (LeakyReLU)   (None, 2)                 0         
=================================================================
Total params: 2,462
Trainable params: 2,462
Non-trainable params: 0
_________________________________________________________________
None
Model: "sequential_6"
_________________________________________________________________
Layer (type)                 Output Shape              Param #   
=================================================================
lstm_6 (LSTM)                (None, 4)                 112       
_________________________________________________________________
dense_29 (Dense)             (None, 20)                100       
_________________________________________________________________
leaky_re_lu_29 (LeakyReLU)   (None, 20)                0         
_________________________________________________________________
dropout_23 (Dropout)         (None, 20)                0         
_________________________________________________________________
dense_30 (Dense)             (None, 20)                420       
_________________________________________________________________
leaky_re_lu_30 (LeakyReLU)   (None, 20)                0         
_________________________________________________________________
dropout_24 (Dropout)         (None, 20)                0         
_________________________________________________________________
dense_31 (Dense)             (None, 20)                420       
_________________________________________________________________
leaky_re_lu_31 (LeakyReLU)   (None, 20)                0         
_________________________________________________________________
dropout_25 (Dropout)         (None, 20)                0         
_________________________________________________________________
dense_32 (Dense)             (None, 20)                420       
_________________________________________________________________
leaky_re_lu_32 (LeakyReLU)   (None, 20)                0         
_________________________________________________________________
dropout_26 (Dropout)         (None, 20)                0         
_________________________________________________________________
dense_33 (Dense)             (None, 20)                420       
_________________________________________________________________
leaky_re_lu_33 (LeakyReLU)   (None, 20)                0         
_________________________________________________________________
dropout_27 (Dropout)         (None, 20)                0         
_________________________________________________________________
dense_34 (Dense)             (None, 20)                420       
_________________________________________________________________
leaky_re_lu_34 (LeakyReLU)   (None, 20)                0         
_________________________________________________________________
dropout_28 (Dropout)         (None, 20)                0         
_________________________________________________________________
dense_35 (Dense)             (None, 20)                420       
_________________________________________________________________
_________________________________________________________________
leaky_re_lu_17 (LeakyReLU)   (None, 10)                0         
_________________________________________________________________
dropout_14 (Dropout)         (None, 10)                0         
_________________________________________________________________
dense_18 (Dense)             (None, 10)                110       
_________________________________________________________________
leaky_re_lu_18 (LeakyReLU)   (None, 10)                0         
_________________________________________________________________
dropout_15 (Dropout)         (None, 10)                0         
_________________________________________________________________
dense_19 (Dense)             (None, 10)                110       
_________________________________________________________________
leaky_re_lu_19 (LeakyReLU)   (None, 10)                0         
_________________________________________________________________
dropout_16 (Dropout)         (None, 10)                0         
_________________________________________________________________
dense_20 (Dense)             (None, 10)                110       
_________________________________________________________________
leaky_re_lu_20 (LeakyReLU)   (None, 10)                0         
_________________________________________________________________
dropout_17 (Dropout)         (None, 10)                0         
_________________________________________________________________
dense_21 (Dense)             (None, 10)                110       
_________________________________________________________________
leaky_re_lu_21 (LeakyReLU)   (None, 10)                0         
_________________________________________________________________
dropout_18 (Dropout)         (None, 10)                0         
_________________________________________________________________
dense_22 (Dense)             (None, 10)                110       
_________________________________________________________________
leaky_re_lu_22 (LeakyReLU)   (None, 10)                0         
_________________________________________________________________
dropout_19 (Dropout)         (None, 10)                0         
_________________________________________________________________
dense_23 (Dense)             (None, 10)                110       
_________________________________________________________________
leaky_re_lu_23 (LeakyReLU)   (None, 10)                0         
_________________________________________________________________
dropout_20 (Dropout)         (None, 10)                0         
_________________________________________________________________
dense_24 (Dense)             (None, 2)                 22        
_________________________________________________________________
leaky_re_lu_24 (LeakyReLU)   (None, 2)                 0         
=================================================================
Total params: 1,642
Trainable params: 1,642
Non-trainable params: 0
_________________________________________________________________
None
Model: "sequential_4"
_________________________________________________________________
Layer (type)                 Output Shape              Param #   
=================================================================
lstm_4 (LSTM)                (None, 4)                 112       
_________________________________________________________________
dense_25 (Dense)             (None, 20)                100       
_________________________________________________________________
leaky_re_lu_25 (LeakyReLU)   (None, 20)                0         
_________________________________________________________________
dropout_21 (Dropout)         (None, 20)                0         
_________________________________________________________________
dense_26 (Dense)             (None, 2)                 42        
_________________________________________________________________
leaky_re_lu_26 (LeakyReLU)   (None, 2)                 0         
=================================================================
Total params: 254
Trainable params: 254
Non-trainable params: 0
_________________________________________________________________
None
Model: "sequential_5"
_________________________________________________________________
Layer (type)                 Output Shape              Param #   
=================================================================
lstm_5 (LSTM)                (None, 4)                 112       
_________________________________________________________________
dense_27 (Dense)             (None, 20)                100       
_________________________________________________________________
leaky_re_lu_27 (LeakyReLU)   (None, 20)                0         
_________________________________________________________________
dropout_22 (Dropout)         (None, 20)                0         
_________________________________________________________________
dense_28 (Dense)             (None, 20)                420       
_________________________________________________________________
leaky_re_lu_28 (LeakyReLU)   (None, 20)                0         
_________________________________________________________________
dropout_23 (Dropout)         (None, 20)                0         
_________________________________________________________________
dense_29 (Dense)             (None, 20)                420       
_________________________________________________________________
leaky_re_lu_29 (LeakyReLU)   (None, 20)                0         
_________________________________________________________________
dropout_24 (Dropout)         (None, 20)                0         
_________________________________________________________________
dense_30 (Dense)             (None, 20)                420       
_________________________________________________________________
leaky_re_lu_30 (LeakyReLU)   (None, 20)                0         
_________________________________________________________________
dropout_25 (Dropout)         (None, 20)                0         
_________________________________________________________________
dense_31 (Dense)             (None, 20)                420       
_________________________________________________________________
leaky_re_lu_31 (LeakyReLU)   (None, 20)                0         
_________________________________________________________________
dropout_26 (Dropout)         (None, 20)                0         
_________________________________________________________________
dense_32 (Dense)             (None, 2)                 42        
_________________________________________________________________
leaky_re_lu_32 (LeakyReLU)   (None, 2)                 0         
=================================================================
Total params: 1,934
Trainable params: 1,934
Non-trainable params: 0
_________________________________________________________________
None
Model: "sequential_6"
_________________________________________________________________
Layer (type)                 Output Shape              Param #   
=================================================================
lstm_6 (LSTM)                (None, 4)                 112       
_________________________________________________________________
dense_33 (Dense)             (None, 20)                100       
_________________________________________________________________
leaky_re_lu_33 (LeakyReLU)   (None, 20)                0         
_________________________________________________________________
dropout_27 (Dropout)         (None, 20)                0         
_________________________________________________________________
dense_34 (Dense)             (None, 20)                420       
_________________________________________________________________
leaky_re_lu_34 (LeakyReLU)   (None, 20)                0         
_________________________________________________________________
dropout_28 (Dropout)         (None, 20)                0         
_________________________________________________________________
dense_35 (Dense)             (None, 20)                420       
_________________________________________________________________
leaky_re_lu_18 (LeakyReLU)   (None, 2)                 0         
=================================================================
Total params: 1,048
Trainable params: 1,048
Non-trainable params: 0
_________________________________________________________________
None
Model: "sequential_3"
_________________________________________________________________
Layer (type)                 Output Shape              Param #   
=================================================================
lstm_3 (LSTM)                (None, 1)                 16        
_________________________________________________________________
dense_19 (Dense)             (None, 20)                40        
_________________________________________________________________
leaky_re_lu_19 (LeakyReLU)   (None, 20)                0         
_________________________________________________________________
dropout_16 (Dropout)         (None, 20)                0         
_________________________________________________________________
dense_20 (Dense)             (None, 2)                 42        
_________________________________________________________________
leaky_re_lu_20 (LeakyReLU)   (None, 2)                 0         
=================================================================
Total params: 98
Trainable params: 98
Non-trainable params: 0
_________________________________________________________________
None
Model: "sequential_4"
_________________________________________________________________
Layer (type)                 Output Shape              Param #   
=================================================================
lstm_4 (LSTM)                (None, 10)                520       
_________________________________________________________________
dense_21 (Dense)             (None, 20)                220       
_________________________________________________________________
leaky_re_lu_21 (LeakyReLU)   (None, 20)                0         
_________________________________________________________________
dropout_17 (Dropout)         (None, 20)                0         
_________________________________________________________________
dense_22 (Dense)             (None, 2)                 42        
_________________________________________________________________
leaky_re_lu_22 (LeakyReLU)   (None, 2)                 0         
=================================================================
Total params: 782
Trainable params: 782
Non-trainable params: 0
_________________________________________________________________
None
Model: "sequential_5"
_________________________________________________________________
Layer (type)                 Output Shape              Param #   
=================================================================
lstm_5 (LSTM)                (None, 10)                520       
_________________________________________________________________
dense_23 (Dense)             (None, 20)                220       
_________________________________________________________________
leaky_re_lu_23 (LeakyReLU)   (None, 20)                0         
_________________________________________________________________
dropout_18 (Dropout)         (None, 20)                0         
_________________________________________________________________
dense_24 (Dense)             (None, 20)                420       
_________________________________________________________________
leaky_re_lu_24 (LeakyReLU)   (None, 20)                0         
_________________________________________________________________
dropout_19 (Dropout)         (None, 20)                0         
_________________________________________________________________
dense_25 (Dense)             (None, 20)                420       
_________________________________________________________________
leaky_re_lu_25 (LeakyReLU)   (None, 20)                0         
_________________________________________________________________
dropout_20 (Dropout)         (None, 20)                0         
_________________________________________________________________
dense_26 (Dense)             (None, 20)                420       
_________________________________________________________________
leaky_re_lu_26 (LeakyReLU)   (None, 20)                0         
_________________________________________________________________
dropout_21 (Dropout)         (None, 20)                0         
_________________________________________________________________
dense_27 (Dense)             (None, 20)                420       
_________________________________________________________________
leaky_re_lu_27 (LeakyReLU)   (None, 20)                0         
_________________________________________________________________
dropout_22 (Dropout)         (None, 20)                0         
_________________________________________________________________
dense_28 (Dense)             (None, 2)                 42        
_________________________________________________________________
leaky_re_lu_28 (LeakyReLU)   (None, 2)                 0         
=================================================================
Total params: 2,462
Trainable params: 2,462
Non-trainable params: 0
_________________________________________________________________
None
Model: "sequential_6"
_________________________________________________________________
Layer (type)                 Output Shape              Param #   
=================================================================
lstm_6 (LSTM)                (None, 10)                520       
_________________________________________________________________
dense_29 (Dense)             (None, 20)                220       
_________________________________________________________________
leaky_re_lu_29 (LeakyReLU)   (None, 20)                0         
_________________________________________________________________
dropout_23 (Dropout)         (None, 20)                0         
_________________________________________________________________
dense_30 (Dense)             (None, 20)                420       
_________________________________________________________________
leaky_re_lu_30 (LeakyReLU)   (None, 20)                0         
_________________________________________________________________
dropout_24 (Dropout)         (None, 20)                0         
_________________________________________________________________
dense_31 (Dense)             (None, 20)                420       
_________________________________________________________________
leaky_re_lu_31 (LeakyReLU)   (None, 20)                0         
_________________________________________________________________
dropout_25 (Dropout)         (None, 20)                0         
_________________________________________________________________
dense_32 (Dense)             (None, 20)                420       
_________________________________________________________________
leaky_re_lu_32 (LeakyReLU)   (None, 20)                0         
_________________________________________________________________
dropout_26 (Dropout)         (None, 20)                0         
_________________________________________________________________
dense_33 (Dense)             (None, 20)                420       
_________________________________________________________________
leaky_re_lu_33 (LeakyReLU)   (None, 20)                0         
_________________________________________________________________
dropout_27 (Dropout)         (None, 20)                0         
_________________________________________________________________
dense_34 (Dense)             (None, 20)                420       
_________________________________________________________________
leaky_re_lu_34 (LeakyReLU)   (None, 20)                0         
_________________________________________________________________
dropout_28 (Dropout)         (None, 20)                0         
_________________________________________________________________
dense_35 (Dense)             (None, 20)                420       
_________________________________________________________________
_________________________________________________________________
leaky_re_lu_36 (LeakyReLU)   (None, 20)                0         
_________________________________________________________________
dropout_31 (Dropout)         (None, 20)                0         
_________________________________________________________________
dense_37 (Dense)             (None, 2)                 42        
_________________________________________________________________
leaky_re_lu_37 (LeakyReLU)   (None, 2)                 0         
=================================================================
Total params: 2,462
Trainable params: 2,462
Non-trainable params: 0
_________________________________________________________________
None
Model: "sequential_6"
_________________________________________________________________
Layer (type)                 Output Shape              Param #   
=================================================================
lstm_6 (LSTM)                (None, 10)                520       
_________________________________________________________________
dense_38 (Dense)             (None, 20)                220       
_________________________________________________________________
leaky_re_lu_38 (LeakyReLU)   (None, 20)                0         
_________________________________________________________________
dropout_32 (Dropout)         (None, 20)                0         
_________________________________________________________________
dense_39 (Dense)             (None, 20)                420       
_________________________________________________________________
leaky_re_lu_39 (LeakyReLU)   (None, 20)                0         
_________________________________________________________________
dropout_33 (Dropout)         (None, 20)                0         
_________________________________________________________________
dense_40 (Dense)             (None, 20)                420       
_________________________________________________________________
leaky_re_lu_40 (LeakyReLU)   (None, 20)                0         
_________________________________________________________________
dropout_34 (Dropout)         (None, 20)                0         
_________________________________________________________________
dense_41 (Dense)             (None, 20)                420       
_________________________________________________________________
leaky_re_lu_41 (LeakyReLU)   (None, 20)                0         
_________________________________________________________________
dropout_35 (Dropout)         (None, 20)                0         
_________________________________________________________________
dense_42 (Dense)             (None, 20)                420       
_________________________________________________________________
leaky_re_lu_42 (LeakyReLU)   (None, 20)                0         
_________________________________________________________________
dropout_36 (Dropout)         (None, 20)                0         
_________________________________________________________________
dense_43 (Dense)             (None, 20)                420       
_________________________________________________________________
leaky_re_lu_43 (LeakyReLU)   (None, 20)                0         
_________________________________________________________________
dropout_37 (Dropout)         (None, 20)                0         
_________________________________________________________________
dense_44 (Dense)             (None, 20)                420       
_________________________________________________________________
leaky_re_lu_44 (LeakyReLU)   (None, 20)                0         
_________________________________________________________________
dropout_38 (Dropout)         (None, 20)                0         
_________________________________________________________________
dense_45 (Dense)             (None, 20)                420       
_________________________________________________________________
leaky_re_lu_45 (LeakyReLU)   (None, 20)                0         
_________________________________________________________________
dropout_39 (Dropout)         (None, 20)                0         
_________________________________________________________________
dense_46 (Dense)             (None, 20)                420       
_________________________________________________________________
leaky_re_lu_46 (LeakyReLU)   (None, 20)                0         
_________________________________________________________________
dropout_40 (Dropout)         (None, 20)                0         
_________________________________________________________________
dense_47 (Dense)             (None, 20)                420       
_________________________________________________________________
leaky_re_lu_47 (LeakyReLU)   (None, 20)                0         
_________________________________________________________________
dropout_41 (Dropout)         (None, 20)                0         
_________________________________________________________________
dense_48 (Dense)             (None, 2)                 42        
_________________________________________________________________
leaky_re_lu_48 (LeakyReLU)   (None, 2)                 0         
=================================================================
Total params: 4,562
Trainable params: 4,562
Non-trainable params: 0
_________________________________________________________________
None
Model: "sequential_7"
_________________________________________________________________
Layer (type)                 Output Shape              Param #   
=================================================================
lstm_7 (LSTM)                (None, 4)                 112       
_________________________________________________________________
dense_49 (Dense)             (None, 50)                250       
_________________________________________________________________
leaky_re_lu_49 (LeakyReLU)   (None, 50)                0         
_________________________________________________________________
dropout_42 (Dropout)         (None, 50)                0         
_________________________________________________________________
dense_50 (Dense)             (None, 2)                 102       
_________________________________________________________________
leaky_re_lu_50 (LeakyReLU)   (None, 2)                 0         
=================================================================
Total params: 464
Trainable params: 464
Non-trainable params: 0
_________________________________________________________________
None
Model: "sequential_8"
_________________________________________________________________
Layer (type)                 Output Shape              Param #   
=================================================================
lstm_8 (LSTM)                (None, 4)                 112       
_________________________________________________________________
dense_51 (Dense)             (None, 50)                250       
_________________________________________________________________
leaky_re_lu_51 (LeakyReLU)   (None, 50)                0         
_________________________________________________________________
dropout_43 (Dropout)         (None, 50)                0         
_________________________________________________________________
dense_52 (Dense)             (None, 50)                2550      
_________________________________________________________________
leaky_re_lu_52 (LeakyReLU)   (None, 50)                0         
_________________________________________________________________
dropout_44 (Dropout)         (None, 50)                0         
_________________________________________________________________
dense_53 (Dense)             (None, 50)                2550      
_________________________________________________________________
leaky_re_lu_53 (LeakyReLU)   (None, 50)                0         
_________________________________________________________________
dropout_45 (Dropout)         (None, 50)                0         
_________________________________________________________________
dense_54 (Dense)             (None, 50)                2550      
_________________________________________________________________
leaky_re_lu_36 (LeakyReLU)   (None, 20)                0         
_________________________________________________________________
dropout_31 (Dropout)         (None, 20)                0         
_________________________________________________________________
dense_37 (Dense)             (None, 2)                 42        
_________________________________________________________________
leaky_re_lu_37 (LeakyReLU)   (None, 2)                 0         
=================================================================
Total params: 3,878
Trainable params: 3,878
Non-trainable params: 0
_________________________________________________________________
None
Model: "sequential_6"
_________________________________________________________________
Layer (type)                 Output Shape              Param #   
=================================================================
lstm_6 (LSTM)                (None, 10)                520       
_________________________________________________________________
dense_38 (Dense)             (None, 20)                220       
_________________________________________________________________
leaky_re_lu_38 (LeakyReLU)   (None, 20)                0         
_________________________________________________________________
dropout_32 (Dropout)         (None, 20)                0         
_________________________________________________________________
dense_39 (Dense)             (None, 20)                420       
_________________________________________________________________
leaky_re_lu_39 (LeakyReLU)   (None, 20)                0         
_________________________________________________________________
dropout_33 (Dropout)         (None, 20)                0         
_________________________________________________________________
dense_40 (Dense)             (None, 20)                420       
_________________________________________________________________
leaky_re_lu_40 (LeakyReLU)   (None, 20)                0         
_________________________________________________________________
dropout_34 (Dropout)         (None, 20)                0         
_________________________________________________________________
dense_41 (Dense)             (None, 20)                420       
_________________________________________________________________
leaky_re_lu_41 (LeakyReLU)   (None, 20)                0         
_________________________________________________________________
dropout_35 (Dropout)         (None, 20)                0         
_________________________________________________________________
dense_42 (Dense)             (None, 20)                420       
_________________________________________________________________
leaky_re_lu_42 (LeakyReLU)   (None, 20)                0         
_________________________________________________________________
dropout_36 (Dropout)         (None, 20)                0         
_________________________________________________________________
dense_43 (Dense)             (None, 20)                420       
_________________________________________________________________
leaky_re_lu_43 (LeakyReLU)   (None, 20)                0         
_________________________________________________________________
dropout_37 (Dropout)         (None, 20)                0         
_________________________________________________________________
dense_44 (Dense)             (None, 20)                420       
_________________________________________________________________
leaky_re_lu_44 (LeakyReLU)   (None, 20)                0         
_________________________________________________________________
dropout_38 (Dropout)         (None, 20)                0         
_________________________________________________________________
dense_45 (Dense)             (None, 20)                420       
_________________________________________________________________
leaky_re_lu_45 (LeakyReLU)   (None, 20)                0         
_________________________________________________________________
dropout_39 (Dropout)         (None, 20)                0         
_________________________________________________________________
dense_46 (Dense)             (None, 20)                420       
_________________________________________________________________
leaky_re_lu_46 (LeakyReLU)   (None, 20)                0         
_________________________________________________________________
dropout_40 (Dropout)         (None, 20)                0         
_________________________________________________________________
dense_47 (Dense)             (None, 20)                420       
_________________________________________________________________
leaky_re_lu_47 (LeakyReLU)   (None, 20)                0         
_________________________________________________________________
dropout_41 (Dropout)         (None, 20)                0         
_________________________________________________________________
dense_48 (Dense)             (None, 2)                 42        
_________________________________________________________________
leaky_re_lu_48 (LeakyReLU)   (None, 2)                 0         
=================================================================
Total params: 4,562
Trainable params: 4,562
Non-trainable params: 0
_________________________________________________________________
None
Model: "sequential_7"
_________________________________________________________________
Layer (type)                 Output Shape              Param #   
=================================================================
lstm_7 (LSTM)                (None, 10)                520       
_________________________________________________________________
dense_49 (Dense)             (None, 50)                550       
_________________________________________________________________
leaky_re_lu_49 (LeakyReLU)   (None, 50)                0         
_________________________________________________________________
dropout_42 (Dropout)         (None, 50)                0         
_________________________________________________________________
dense_50 (Dense)             (None, 2)                 102       
_________________________________________________________________
leaky_re_lu_50 (LeakyReLU)   (None, 2)                 0         
=================================================================
Total params: 1,172
Trainable params: 1,172
Non-trainable params: 0
_________________________________________________________________
None
Model: "sequential_8"
_________________________________________________________________
Layer (type)                 Output Shape              Param #   
=================================================================
lstm_8 (LSTM)                (None, 4)                 112       
_________________________________________________________________
dense_51 (Dense)             (None, 50)                250       
_________________________________________________________________
leaky_re_lu_51 (LeakyReLU)   (None, 50)                0         
_________________________________________________________________
dropout_43 (Dropout)         (None, 50)                0         
_________________________________________________________________
dense_52 (Dense)             (None, 50)                2550      
_________________________________________________________________
leaky_re_lu_52 (LeakyReLU)   (None, 50)                0         
_________________________________________________________________
dropout_44 (Dropout)         (None, 50)                0         
_________________________________________________________________
dense_53 (Dense)             (None, 50)                2550      
_________________________________________________________________
leaky_re_lu_53 (LeakyReLU)   (None, 50)                0         
_________________________________________________________________
dropout_45 (Dropout)         (None, 50)                0         
_________________________________________________________________
dense_54 (Dense)             (None, 50)                2550      
leaky_re_lu_35 (LeakyReLU)   (None, 20)                0         
_________________________________________________________________
dropout_29 (Dropout)         (None, 20)                0         
_________________________________________________________________
dense_36 (Dense)             (None, 20)                420       
_________________________________________________________________
leaky_re_lu_36 (LeakyReLU)   (None, 20)                0         
_________________________________________________________________
dropout_30 (Dropout)         (None, 20)                0         
_________________________________________________________________
dense_37 (Dense)             (None, 20)                420       
_________________________________________________________________
leaky_re_lu_37 (LeakyReLU)   (None, 20)                0         
_________________________________________________________________
dropout_31 (Dropout)         (None, 20)                0         
_________________________________________________________________
dense_38 (Dense)             (None, 20)                420       
_________________________________________________________________
leaky_re_lu_38 (LeakyReLU)   (None, 20)                0         
_________________________________________________________________
dropout_32 (Dropout)         (None, 20)                0         
_________________________________________________________________
dense_39 (Dense)             (None, 2)                 42        
_________________________________________________________________
leaky_re_lu_39 (LeakyReLU)   (None, 2)                 0         
=================================================================
Total params: 4,562
Trainable params: 4,562
Non-trainable params: 0
_________________________________________________________________
None
Model: "sequential_7"
…
dense_240 (Dense)            (None, 2)                 102       
_________________________________________________________________
leaky_re_lu_240 (LeakyReLU)  (None, 2)                 0         
=================================================================
Total params: 464
Trainable params: 464
Non-trainable params: 0
_________________________________________________________________
None
Model: "sequential_38"
_________________________________________________________________
Layer (type)                 Output Shape              Param #   
=================================================================
lstm_38 (LSTM)               (None, 4)                 112       
_________________________________________________________________
dense_241 (Dense)            (None, 50)                250       
_________________________________________________________________
leaky_re_lu_241 (LeakyReLU)  (None, 50)                0         
_________________________________________________________________
dropout_203 (Dropout)        (None, 50)                0         
_________________________________________________________________
dense_242 (Dense)            (None, 50)                2550      
_________________________________________________________________
leaky_re_lu_242 (LeakyReLU)  (None, 50)                0         
_________________________________________________________________
dropout_204 (Dropout)        (None, 50)                0         
_________________________________________________________________
dense_243 (Dense)            (None, 50)                2550      
_________________________________________________________________
leaky_re_lu_243 (LeakyReLU)  (None, 50)                0         
_________________________________________________________________
dropout_205 (Dropout)        (None, 50)                0         
_________________________________________________________________
dense_244 (Dense)            (None, 50)                2550      
_________________________________________________________________
leaky_re_lu_244 (LeakyReLU)  (None, 50)                0         
_________________________________________________________________
dropout_206 (Dropout)        (None, 50)                0         
_________________________________________________________________
dense_245 (Dense)            (None, 50)                2550      
_________________________________________________________________
leaky_re_lu_245 (LeakyReLU)  (None, 50)                0         
_________________________________________________________________
dropout_207 (Dropout)        (None, 50)                0         
_________________________________________________________________
dense_246 (Dense)            (None, 2)                 102       
_________________________________________________________________
leaky_re_lu_246 (LeakyReLU)  (None, 2)                 0         
=================================================================
Total params: 10,664
Trainable params: 10,664
Non-trainable params: 0
_________________________________________________________________
None
Model: "sequential_39"
_________________________________________________________________
Layer (type)                 Output Shape              Param #   
=================================================================
lstm_39 (LSTM)               (None, 4)                 112       
_________________________________________________________________
dense_247 (Dense)            (None, 50)                250       
_________________________________________________________________
leaky_re_lu_247 (LeakyReLU)  (None, 50)                0         
_________________________________________________________________
dropout_208 (Dropout)        (None, 50)                0         
_________________________________________________________________
dense_248 (Dense)            (None, 50)                2550      
_________________________________________________________________
leaky_re_lu_248 (LeakyReLU)  (None, 50)                0         
_________________________________________________________________
dropout_209 (Dropout)        (None, 50)                0         
_________________________________________________________________
dense_249 (Dense)            (None, 50)                2550      
_________________________________________________________________
leaky_re_lu_249 (LeakyReLU)  (None, 50)                0         
_________________________________________________________________
dropout_210 (Dropout)        (None, 50)                0         
_________________________________________________________________
dense_250 (Dense)            (None, 50)                2550      
_________________________________________________________________
leaky_re_lu_250 (LeakyReLU)  (None, 50)                0         
_________________________________________________________________
dropout_211 (Dropout)        (None, 50)                0         
_________________________________________________________________
dense_251 (Dense)            (None, 50)                2550      
_________________________________________________________________
leaky_re_lu_251 (LeakyReLU)  (None, 50)                0         
_________________________________________________________________
dropout_212 (Dropout)        (None, 50)                0         
_________________________________________________________________
dense_252 (Dense)            (None, 50)                2550      
_________________________________________________________________
leaky_re_lu_252 (LeakyReLU)  (None, 50)                0         
_________________________________________________________________
dropout_213 (Dropout)        (None, 50)                0         
_________________________________________________________________
dense_253 (Dense)            (None, 50)                2550      
_________________________________________________________________
leaky_re_lu_253 (LeakyReLU)  (None, 50)                0         
_________________________________________________________________
dropout_214 (Dropout)        (None, 50)                0         
_________________________________________________________________
dense_254 (Dense)            (None, 50)                2550      
_________________________________________________________________
leaky_re_lu_254 (LeakyReLU)  (None, 50)                0         
_________________________________________________________________
leaky_re_lu_235 (LeakyReLU)  (None, 2)                 0         
=================================================================
Total params: 218
Trainable params: 218
Non-trainable params: 0
_________________________________________________________________
None
Model: "sequential_38"
_________________________________________________________________
Layer (type)                 Output Shape              Param #   
=================================================================
lstm_38 (LSTM)               (None, 10)                520       
_________________________________________________________________
dense_236 (Dense)            (None, 50)                550       
_________________________________________________________________
leaky_re_lu_236 (LeakyReLU)  (None, 50)                0         
_________________________________________________________________
dropout_198 (Dropout)        (None, 50)                0         
_________________________________________________________________
dense_237 (Dense)            (None, 2)                 102       
_________________________________________________________________
leaky_re_lu_237 (LeakyReLU)  (None, 2)                 0         
=================================================================
Total params: 1,172
Trainable params: 1,172
Non-trainable params: 0
_________________________________________________________________
None
Model: "sequential_39"
_________________________________________________________________
Layer (type)                 Output Shape              Param #   
=================================================================
lstm_39 (LSTM)               (None, 10)                520       
_________________________________________________________________
dense_238 (Dense)            (None, 50)                550       
_________________________________________________________________
leaky_re_lu_238 (LeakyReLU)  (None, 50)                0         
_________________________________________________________________
dropout_199 (Dropout)        (None, 50)                0         
_________________________________________________________________
dense_239 (Dense)            (None, 50)                2550      
_________________________________________________________________
leaky_re_lu_239 (LeakyReLU)  (None, 50)                0         
_________________________________________________________________
dropout_200 (Dropout)        (None, 50)                0         
_________________________________________________________________
dense_240 (Dense)            (None, 50)                2550      
_________________________________________________________________
leaky_re_lu_240 (LeakyReLU)  (None, 50)                0         
_________________________________________________________________
dropout_201 (Dropout)        (None, 50)                0         
_________________________________________________________________
dense_241 (Dense)            (None, 50)                2550      
_________________________________________________________________
leaky_re_lu_241 (LeakyReLU)  (None, 50)                0         
_________________________________________________________________
dropout_202 (Dropout)        (None, 50)                0         
_________________________________________________________________
dense_242 (Dense)            (None, 50)                2550      
_________________________________________________________________
leaky_re_lu_242 (LeakyReLU)  (None, 50)                0         
_________________________________________________________________
dropout_203 (Dropout)        (None, 50)                0         
_________________________________________________________________
dense_243 (Dense)            (None, 2)                 102       
_________________________________________________________________
leaky_re_lu_243 (LeakyReLU)  (None, 2)                 0         
=================================================================
Total params: 11,372
Trainable params: 11,372
Non-trainable params: 0
_________________________________________________________________
None
Model: "sequential_40"
_________________________________________________________________
Layer (type)                 Output Shape              Param #   
=================================================================
lstm_40 (LSTM)               (None, 10)                520       
_________________________________________________________________
dense_244 (Dense)            (None, 50)                550       
_________________________________________________________________
leaky_re_lu_244 (LeakyReLU)  (None, 50)                0         
_________________________________________________________________
dropout_204 (Dropout)        (None, 50)                0         
_________________________________________________________________
dense_245 (Dense)            (None, 50)                2550      
_________________________________________________________________
leaky_re_lu_245 (LeakyReLU)  (None, 50)                0         
_________________________________________________________________
dropout_205 (Dropout)        (None, 50)                0         
_________________________________________________________________
dense_246 (Dense)            (None, 50)                2550      
_________________________________________________________________
leaky_re_lu_246 (LeakyReLU)  (None, 50)                0         
_________________________________________________________________
dropout_206 (Dropout)        (None, 50)                0         
_________________________________________________________________
dense_247 (Dense)            (None, 50)                2550      
_________________________________________________________________
leaky_re_lu_247 (LeakyReLU)  (None, 50)                0         
_________________________________________________________________
dropout_207 (Dropout)        (None, 50)                0         
_________________________________________________________________
dense_248 (Dense)            (None, 50)                2550      
_________________________________________________________________
leaky_re_lu_248 (LeakyReLU)  (None, 50)                0         
_________________________________________________________________
dropout_208 (Dropout)        (None, 50)                0         
_________________________________________________________________
dense_249 (Dense)            (None, 50)                2550      
_________________________________________________________________
leaky_re_lu_249 (LeakyReLU)  (None, 50)                0         
_________________________________________________________________
dropout_209 (Dropout)        (None, 50)                0         
_________________________________________________________________
dense_250 (Dense)            (None, 50)                2550      
_________________________________________________________________
leaky_re_lu_250 (LeakyReLU)  (None, 50)                0         
_________________________________________________________________
dropout_210 (Dropout)        (None, 50)                0         
_________________________________________________________________
dense_251 (Dense)            (None, 50)                2550      
_________________________________________________________________
leaky_re_lu_251 (LeakyReLU)  (None, 50)                0         
_________________________________________________________________
dropout_211 (Dropout)        (None, 50)                0         
_________________________________________________________________
dense_252 (Dense)            (None, 50)                2550      
_________________________________________________________________
leaky_re_lu_252 (LeakyReLU)  (None, 50)                0         
_________________________________________________________________
dropout_212 (Dropout)        (None, 50)                0         
_________________________________________________________________
dense_253 (Dense)            (None, 50)                2550      
_________________________________________________________________
leaky_re_lu_254 (LeakyReLU)  (None, 50)                0         
_________________________________________________________________
dropout_215 (Dropout)        (None, 50)                0         
_________________________________________________________________
dense_255 (Dense)            (None, 50)                2550      
_________________________________________________________________
leaky_re_lu_255 (LeakyReLU)  (None, 50)                0         
_________________________________________________________________
dropout_216 (Dropout)        (None, 50)                0         
_________________________________________________________________
dense_256 (Dense)            (None, 50)                2550      
_________________________________________________________________
leaky_re_lu_256 (LeakyReLU)  (None, 50)                0         
_________________________________________________________________
dropout_217 (Dropout)        (None, 50)                0         
_________________________________________________________________
dense_257 (Dense)            (None, 50)                2550      
_________________________________________________________________
leaky_re_lu_257 (LeakyReLU)  (None, 50)                0         
_________________________________________________________________
dropout_218 (Dropout)        (None, 50)                0         
_________________________________________________________________
dense_258 (Dense)            (None, 50)                2550      
_________________________________________________________________
leaky_re_lu_258 (LeakyReLU)  (None, 50)                0         
_________________________________________________________________
dropout_219 (Dropout)        (None, 50)                0         
_________________________________________________________________
dense_259 (Dense)            (None, 50)                2550      
_________________________________________________________________
leaky_re_lu_259 (LeakyReLU)  (None, 50)                0         
_________________________________________________________________
dropout_220 (Dropout)        (None, 50)                0         
_________________________________________________________________
dense_260 (Dense)            (None, 50)                2550      
_________________________________________________________________
leaky_re_lu_260 (LeakyReLU)  (None, 50)                0         
_________________________________________________________________
dropout_221 (Dropout)        (None, 50)                0         
_________________________________________________________________
dense_261 (Dense)            (None, 50)                2550      
_________________________________________________________________
leaky_re_lu_261 (LeakyReLU)  (None, 50)                0         
_________________________________________________________________
dropout_222 (Dropout)        (None, 50)                0         
_________________________________________________________________
dense_262 (Dense)            (None, 2)                 102       
_________________________________________________________________
leaky_re_lu_262 (LeakyReLU)  (None, 2)                 0         
=================================================================
Total params: 23,168
Trainable params: 23,168
Non-trainable params: 0
_________________________________________________________________
None
Model: "sequential_40"
_________________________________________________________________
Layer (type)                 Output Shape              Param #   
=================================================================
lstm_40 (LSTM)               (None, 10)                520       
_________________________________________________________________
dense_263 (Dense)            (None, 50)                550       
_________________________________________________________________
leaky_re_lu_263 (LeakyReLU)  (None, 50)                0         
_________________________________________________________________
dropout_223 (Dropout)        (None, 50)                0         
_________________________________________________________________
dense_264 (Dense)            (None, 50)                2550      
_________________________________________________________________
leaky_re_lu_264 (LeakyReLU)  (None, 50)                0         
_________________________________________________________________
dropout_224 (Dropout)        (None, 50)                0         
_________________________________________________________________
dense_265 (Dense)            (None, 50)                2550      
_________________________________________________________________
leaky_re_lu_265 (LeakyReLU)  (None, 50)                0         
_________________________________________________________________
dropout_225 (Dropout)        (None, 50)                0         
_________________________________________________________________
dense_266 (Dense)            (None, 50)                2550      
_________________________________________________________________
leaky_re_lu_266 (LeakyReLU)  (None, 50)                0         
_________________________________________________________________
dropout_226 (Dropout)        (None, 50)                0         
_________________________________________________________________
dense_267 (Dense)            (None, 50)                2550      
_________________________________________________________________
leaky_re_lu_267 (LeakyReLU)  (None, 50)                0         
_________________________________________________________________
dropout_227 (Dropout)        (None, 50)                0         
_________________________________________________________________
dense_268 (Dense)            (None, 50)                2550      
_________________________________________________________________
leaky_re_lu_268 (LeakyReLU)  (None, 50)                0         
_________________________________________________________________
dropout_228 (Dropout)        (None, 50)                0         
_________________________________________________________________
dense_269 (Dense)            (None, 50)                2550      
_________________________________________________________________
leaky_re_lu_269 (LeakyReLU)  (None, 50)                0         
_________________________________________________________________
dropout_229 (Dropout)        (None, 50)                0         
_________________________________________________________________
dense_270 (Dense)            (None, 50)                2550      
_________________________________________________________________
leaky_re_lu_270 (LeakyReLU)  (None, 50)                0         
_________________________________________________________________
dropout_230 (Dropout)        (None, 50)                0         
_________________________________________________________________
dense_271 (Dense)            (None, 50)                2550      
_________________________________________________________________
leaky_re_lu_271 (LeakyReLU)  (None, 50)                0         
_________________________________________________________________
dropout_231 (Dropout)        (None, 50)                0         
_________________________________________________________________
dense_272 (Dense)            (None, 50)                2550      
_________________________________________________________________
leaky_re_lu_272 (LeakyReLU)  (None, 50)                0         
_________________________________________________________________
dropout_232 (Dropout)        (None, 50)                0         
_________________________________________________________________
dense_273 (Dense)            (None, 2)                 102       
_________________________________________________________________
leaky_re_lu_273 (LeakyReLU)  (None, 2)                 0         
=================================================================
Total params: 24,122
Trainable params: 24,122
Non-trainable params: 0
_________________________________________________________________Model: "sequential"
_________________________________________________________________
Layer (type)                 Output Shape              Param #   
=================================================================
lstm (LSTM)                  (None, 4)                 112       
_________________________________________________________________
dense (Dense)                (None, 50)                250       
_________________________________________________________________
leaky_re_lu (LeakyReLU)      (None, 50)                0         
_________________________________________________________________
dropout (Dropout)            (None, 50)                0         
_________________________________________________________________
dense_1 (Dense)              (None, 2)                 102       
_________________________________________________________________
leaky_re_lu_1 (LeakyReLU)    (None, 2)                 0         
=================================================================
Total params: 464
Trainable params: 464
Non-trainable params: 0
_________________________________________________________________
None
Best: -4951.176107 using {'dropout_rate': 0.1, 'learning_rates': 0.1, 'n_dense_neurons': 50, 'n_layers': 1, 'n_lstm_cells': 4, 'seq_size': 19}
-223745.901937 (310501.659747) with: {'dropout_rate': 0.1, 'learning_rates': 0.1, 'n_dense_neurons': 10, 'n_layers': 1, 'n_lstm_cells': 1, 'seq_size': 19}
…
-186249.980143 (235359.855558) with: {'dropout_rate': 0.2, 'learning_rates': 0.01, 'n_dense_neurons': 50, 'n_layers': 5, 'n_lstm_cells': 10, 'seq_size': 19}
-315358.214518 (425696.443414) with: {'dropout_rate': 0.2, 'learning_rates': 0.01, 'n_dense_neurons': 50, 'n_layers': 10, 'n_lstm_cells': 1, 'seq_size': 19}
-219822.683757 (286934.881808) with: {'dropout_rate': 0.2, 'learning_rates': 0.01, 'n_dense_neurons': 50, 'n_layers': 10, 'n_lstm_cells': 4, 'seq_size': 19}
-255222.778483 (268663.565548) with: {'dropout_rate': 0.2, 'learning_rates': 0.01, 'n_dense_neurons': 50, 'n_layers': 10, 'n_lstm_cells': 10, 'seq_size': 19}

_________________________________________________________________
dropout_192 (Dropout)        (None, 50)                0         
_________________________________________________________________
dense_233 (Dense)            (None, 50)                2550      
_________________________________________________________________
leaky_re_lu_233 (LeakyReLU)  (None, 50)                0         
_________________________________________________________________
dropout_193 (Dropout)        (None, 50)                0         
_________________________________________________________________
dense_234 (Dense)            (None, 50)                2550      
_________________________________________________________________
leaky_re_lu_234 (LeakyReLU)  (None, 50)                0         
_________________________________________________________________
dropout_194 (Dropout)        (None, 50)                0         
_________________________________________________________________
dense_235 (Dense)            (None, 50)                2550      
_________________________________________________________________
leaky_re_lu_235 (LeakyReLU)  (None, 50)                0         
_________________________________________________________________
dropout_195 (Dropout)        (None, 50)                0         
_________________________________________________________________
dense_236 (Dense)            (None, 2)                 102       
_________________________________________________________________
leaky_re_lu_236 (LeakyReLU)  (None, 2)                 0         
=================================================================
Total params: 23,414
Trainable params: 23,414
Non-trainable params: 0
_________________________________________________________________
None

leaky_re_lu_255 (LeakyReLU)  (None, 50)                0         
_________________________________________________________________
dropout_217 (Dropout)        (None, 50)                0         
_________________________________________________________________
dense_256 (Dense)            (None, 50)                2550      
_________________________________________________________________
leaky_re_lu_256 (LeakyReLU)  (None, 50)                0         
_________________________________________________________________
dropout_218 (Dropout)        (None, 50)                0         
_________________________________________________________________
dense_257 (Dense)            (None, 50)                2550      
_________________________________________________________________
leaky_re_lu_257 (LeakyReLU)  (None, 50)                0         
_________________________________________________________________
dropout_219 (Dropout)        (None, 50)                0         
_________________________________________________________________
dense_258 (Dense)            (None, 50)                2550      
_________________________________________________________________
leaky_re_lu_258 (LeakyReLU)  (None, 50)                0         
_________________________________________________________________
dropout_220 (Dropout)        (None, 50)                0         
_________________________________________________________________
dense_259 (Dense)            (None, 2)                 102       
_________________________________________________________________
leaky_re_lu_259 (LeakyReLU)  (None, 2)                 0         
=================================================================
Total params: 10,418
Trainable params: 10,418
Non-trainable params: 0
_________________________________________________________________
None
Model: "sequential_39"
_________________________________________________________________
Layer (type)                 Output Shape              Param #   
=================================================================
lstm_39 (LSTM)               (None, 1)                 16        
_________________________________________________________________
dense_260 (Dense)            (None, 50)                100       
_________________________________________________________________
leaky_re_lu_260 (LeakyReLU)  (None, 50)                0         
_________________________________________________________________
dropout_221 (Dropout)        (None, 50)                0         
_________________________________________________________________
dense_261 (Dense)            (None, 50)                2550      
_________________________________________________________________
leaky_re_lu_261 (LeakyReLU)  (None, 50)                0         
_________________________________________________________________
dropout_222 (Dropout)        (None, 50)                0         
_________________________________________________________________
dense_262 (Dense)            (None, 50)                2550      
_________________________________________________________________
leaky_re_lu_262 (LeakyReLU)  (None, 50)                0         
_________________________________________________________________
dropout_223 (Dropout)        (None, 50)                0         
_________________________________________________________________
dense_263 (Dense)            (None, 50)                2550      
_________________________________________________________________
leaky_re_lu_263 (LeakyReLU)  (None, 50)                0         
_________________________________________________________________
dropout_224 (Dropout)        (None, 50)                0         
_________________________________________________________________
dense_264 (Dense)            (None, 50)                2550      
_________________________________________________________________
leaky_re_lu_264 (LeakyReLU)  (None, 50)                0         
_________________________________________________________________
dropout_225 (Dropout)        (None, 50)                0         
_________________________________________________________________
dense_265 (Dense)            (None, 50)                2550      
_________________________________________________________________
leaky_re_lu_265 (LeakyReLU)  (None, 50)                0         
_________________________________________________________________
dropout_226 (Dropout)        (None, 50)                0         
_________________________________________________________________
dense_266 (Dense)            (None, 50)                2550      
_________________________________________________________________
leaky_re_lu_266 (LeakyReLU)  (None, 50)                0         
_________________________________________________________________
dropout_227 (Dropout)        (None, 50)                0         
_________________________________________________________________
dense_267 (Dense)            (None, 50)                2550      
_________________________________________________________________
leaky_re_lu_267 (LeakyReLU)  (None, 50)                0         
_________________________________________________________________
dropout_228 (Dropout)        (None, 50)                0         
_________________________________________________________________
dense_268 (Dense)            (None, 50)                2550      
_________________________________________________________________
leaky_re_lu_268 (LeakyReLU)  (None, 50)                0         
_________________________________________________________________
dropout_229 (Dropout)        (None, 50)                0         
_________________________________________________________________
dense_269 (Dense)            (None, 50)                2550      
_________________________________________________________________
leaky_re_lu_269 (LeakyReLU)  (None, 50)                0         
_________________________________________________________________
dropout_230 (Dropout)        (None, 50)                0         
_________________________________________________________________
dense_270 (Dense)            (None, 2)                 102       
_________________________________________________________________
leaky_re_lu_270 (LeakyReLU)  (None, 2)                 0         
=================================================================
Total params: 23,168
Trainable params: 23,168
Non-trainable params: 0
_________________________________________________________________
None

_________________________________________________________________
dropout_215 (Dropout)        (None, 50)                0         
_________________________________________________________________
dense_255 (Dense)            (None, 50)                2550      
_________________________________________________________________
leaky_re_lu_255 (LeakyReLU)  (None, 50)                0         
_________________________________________________________________
dropout_216 (Dropout)        (None, 50)                0         
_________________________________________________________________
dense_256 (Dense)            (None, 50)                2550      
_________________________________________________________________
leaky_re_lu_256 (LeakyReLU)  (None, 50)                0         
_________________________________________________________________
dropout_217 (Dropout)        (None, 50)                0         
_________________________________________________________________
dense_257 (Dense)            (None, 2)                 102       
_________________________________________________________________
leaky_re_lu_257 (LeakyReLU)  (None, 2)                 0         
=================================================================
Total params: 23,414
Trainable params: 23,414
Non-trainable params: 0
_________________________________________________________________
None

dense_254 (Dense)            (None, 50)                2550      
_________________________________________________________________
leaky_re_lu_254 (LeakyReLU)  (None, 50)                0         
_________________________________________________________________
dropout_215 (Dropout)        (None, 50)                0         
_________________________________________________________________
dense_255 (Dense)            (None, 50)                2550      
_________________________________________________________________
leaky_re_lu_255 (LeakyReLU)  (None, 50)                0         
_________________________________________________________________
dropout_216 (Dropout)        (None, 50)                0         
_________________________________________________________________
dense_256 (Dense)            (None, 50)                2550      
_________________________________________________________________
leaky_re_lu_256 (LeakyReLU)  (None, 50)                0         
_________________________________________________________________
dropout_217 (Dropout)        (None, 50)                0         
_________________________________________________________________
dense_257 (Dense)            (None, 2)                 102       
_________________________________________________________________
leaky_re_lu_257 (LeakyReLU)  (None, 2)                 0         
=================================================================
Total params: 23,414
Trainable params: 23,414
Non-trainable params: 0
_________________________________________________________________
None

leaky_re_lu_235 (LeakyReLU)  (None, 2)                 0         
=================================================================
Total params: 464
Trainable params: 464
Non-trainable params: 0
_________________________________________________________________
None
Model: "sequential_38"
_________________________________________________________________
Layer (type)                 Output Shape              Param #   
=================================================================
lstm_38 (LSTM)               (None, 10)                520       
_________________________________________________________________
dense_236 (Dense)            (None, 50)                550       
_________________________________________________________________
leaky_re_lu_236 (LeakyReLU)  (None, 50)                0         
_________________________________________________________________
dropout_198 (Dropout)        (None, 50)                0         
_________________________________________________________________
dense_237 (Dense)            (None, 50)                2550      
_________________________________________________________________
leaky_re_lu_237 (LeakyReLU)  (None, 50)                0         
_________________________________________________________________
dropout_199 (Dropout)        (None, 50)                0         
_________________________________________________________________
dense_238 (Dense)            (None, 50)                2550      
_________________________________________________________________
leaky_re_lu_238 (LeakyReLU)  (None, 50)                0         
_________________________________________________________________
dropout_200 (Dropout)        (None, 50)                0         
_________________________________________________________________
dense_239 (Dense)            (None, 50)                2550      
_________________________________________________________________
leaky_re_lu_239 (LeakyReLU)  (None, 50)                0         
_________________________________________________________________
dropout_201 (Dropout)        (None, 50)                0         
_________________________________________________________________
dense_240 (Dense)            (None, 50)                2550      
_________________________________________________________________
leaky_re_lu_240 (LeakyReLU)  (None, 50)                0         
_________________________________________________________________
dropout_202 (Dropout)        (None, 50)                0         
_________________________________________________________________
dense_241 (Dense)            (None, 2)                 102       
_________________________________________________________________
leaky_re_lu_241 (LeakyReLU)  (None, 2)                 0         
=================================================================
Total params: 11,372
Trainable params: 11,372
Non-trainable params: 0
_________________________________________________________________
None
Model: "sequential_39"
_________________________________________________________________
Layer (type)                 Output Shape              Param #   
=================================================================
lstm_39 (LSTM)               (None, 1)                 16        
_________________________________________________________________
dense_242 (Dense)            (None, 50)                100       
_________________________________________________________________
leaky_re_lu_242 (LeakyReLU)  (None, 50)                0         
_________________________________________________________________
dropout_203 (Dropout)        (None, 50)                0         
_________________________________________________________________
dense_243 (Dense)            (None, 50)                2550      
_________________________________________________________________
leaky_re_lu_243 (LeakyReLU)  (None, 50)                0         
_________________________________________________________________
dropout_204 (Dropout)        (None, 50)                0         
_________________________________________________________________
dense_244 (Dense)            (None, 50)                2550      
_________________________________________________________________
leaky_re_lu_244 (LeakyReLU)  (None, 50)                0         
_________________________________________________________________
dropout_205 (Dropout)        (None, 50)                0         
_________________________________________________________________
dense_245 (Dense)            (None, 50)                2550      
_________________________________________________________________
leaky_re_lu_245 (LeakyReLU)  (None, 50)                0         
_________________________________________________________________
dropout_206 (Dropout)        (None, 50)                0         
_________________________________________________________________
dense_246 (Dense)            (None, 50)                2550      
_________________________________________________________________
leaky_re_lu_246 (LeakyReLU)  (None, 50)                0         
_________________________________________________________________
dropout_207 (Dropout)        (None, 50)                0         
_________________________________________________________________
dense_247 (Dense)            (None, 50)                2550      
_________________________________________________________________
leaky_re_lu_247 (LeakyReLU)  (None, 50)                0         
_________________________________________________________________
dropout_208 (Dropout)        (None, 50)                0         
_________________________________________________________________
dense_248 (Dense)            (None, 50)                2550      
_________________________________________________________________
leaky_re_lu_248 (LeakyReLU)  (None, 50)                0         
_________________________________________________________________
dropout_209 (Dropout)        (None, 50)                0         
_________________________________________________________________
dense_249 (Dense)            (None, 50)                2550      
_________________________________________________________________
leaky_re_lu_249 (LeakyReLU)  (None, 50)                0         
_________________________________________________________________
dropout_210 (Dropout)        (None, 50)                0         
_________________________________________________________________
dense_250 (Dense)            (None, 50)                2550      
_________________________________________________________________
leaky_re_lu_250 (LeakyReLU)  (None, 50)                0         
_________________________________________________________________
dropout_211 (Dropout)        (None, 50)                0         
_________________________________________________________________
dense_251 (Dense)            (None, 50)                2550      
_________________________________________________________________
leaky_re_lu_251 (LeakyReLU)  (None, 50)                0         
_________________________________________________________________
dropout_212 (Dropout)        (None, 50)                0         
_________________________________________________________________
dense_252 (Dense)            (None, 2)                 102       
_________________________________________________________________
leaky_re_lu_252 (LeakyReLU)  (None, 2)                 0         
=================================================================
Total params: 23,168
Trainable params: 23,168
Non-trainable params: 0
_________________________________________________________________
None

_________________________________________________________________
leaky_re_lu_253 (LeakyReLU)  (None, 50)                0         
_________________________________________________________________
dropout_213 (Dropout)        (None, 50)                0         
_________________________________________________________________
dense_254 (Dense)            (None, 2)                 102       
_________________________________________________________________
leaky_re_lu_254 (LeakyReLU)  (None, 2)                 0         
=================================================================
Total params: 24,122
Trainable params: 24,122
Non-trainable params: 0
_________________________________________________________________
None

dropout_194 (Dropout)        (None, 50)                0         
_________________________________________________________________
dense_234 (Dense)            (None, 2)                 102       
_________________________________________________________________
leaky_re_lu_234 (LeakyReLU)  (None, 2)                 0         
=================================================================
Total params: 11,372
Trainable params: 11,372
Non-trainable params: 0
_________________________________________________________________
None
Model: "sequential_40"
_________________________________________________________________
Layer (type)                 Output Shape              Param #   
=================================================================
lstm_40 (LSTM)               (None, 10)                520       
_________________________________________________________________
dense_235 (Dense)            (None, 50)                550       
_________________________________________________________________
leaky_re_lu_235 (LeakyReLU)  (None, 50)                0         
_________________________________________________________________
dropout_195 (Dropout)        (None, 50)                0         
_________________________________________________________________
dense_236 (Dense)            (None, 50)                2550      
_________________________________________________________________
leaky_re_lu_236 (LeakyReLU)  (None, 50)                0         
_________________________________________________________________
dropout_196 (Dropout)        (None, 50)                0         
_________________________________________________________________
dense_237 (Dense)            (None, 50)                2550      
_________________________________________________________________
leaky_re_lu_237 (LeakyReLU)  (None, 50)                0         
_________________________________________________________________
dropout_197 (Dropout)        (None, 50)                0         
_________________________________________________________________
dense_238 (Dense)            (None, 50)                2550      
_________________________________________________________________
leaky_re_lu_238 (LeakyReLU)  (None, 50)                0         
_________________________________________________________________
dropout_198 (Dropout)        (None, 50)                0         
_________________________________________________________________
dense_239 (Dense)            (None, 50)                2550      
_________________________________________________________________
leaky_re_lu_239 (LeakyReLU)  (None, 50)                0         
_________________________________________________________________
dropout_199 (Dropout)        (None, 50)                0         
_________________________________________________________________
dense_240 (Dense)            (None, 50)                2550      
_________________________________________________________________
leaky_re_lu_240 (LeakyReLU)  (None, 50)                0         
_________________________________________________________________
dropout_200 (Dropout)        (None, 50)                0         
_________________________________________________________________
dense_241 (Dense)            (None, 50)                2550      
_________________________________________________________________
leaky_re_lu_241 (LeakyReLU)  (None, 50)                0         
_________________________________________________________________
dropout_201 (Dropout)        (None, 50)                0         
_________________________________________________________________
dense_242 (Dense)            (None, 50)                2550      
_________________________________________________________________
leaky_re_lu_242 (LeakyReLU)  (None, 50)                0         
_________________________________________________________________
dropout_202 (Dropout)        (None, 50)                0         
_________________________________________________________________
dense_243 (Dense)            (None, 50)                2550      
_________________________________________________________________
leaky_re_lu_243 (LeakyReLU)  (None, 50)                0         
_________________________________________________________________
dropout_203 (Dropout)        (None, 50)                0         
_________________________________________________________________
dense_244 (Dense)            (None, 50)                2550      
_________________________________________________________________
leaky_re_lu_244 (LeakyReLU)  (None, 50)                0         
_________________________________________________________________
dropout_204 (Dropout)        (None, 50)                0         
_________________________________________________________________
dense_245 (Dense)            (None, 2)                 102       
_________________________________________________________________
leaky_re_lu_245 (LeakyReLU)  (None, 2)                 0         
=================================================================
Total params: 24,122
Trainable params: 24,122
Non-trainable params: 0
_________________________________________________________________
None

None
